node {
  name: "global_step/Initializer/zeros"
  op: "Const"
  attr {
    key: "_class"
    value {
      list {
        s: "loc:@global_step"
      }
    }
  }
  attr {
    key: "_output_shapes"
    value {
      list {
        shape {
        }
      }
    }
  }
  attr {
    key: "dtype"
    value {
      type: DT_INT64
    }
  }
  attr {
    key: "value"
    value {
      tensor {
        dtype: DT_INT64
        tensor_shape {
        }
        int64_val: 0
      }
    }
  }
}
node {
  name: "global_step"
  op: "VarHandleOp"
  device: "/replica:0/task:0/device:GPU:0"
  attr {
    key: "_class"
    value {
      list {
        s: "loc:@global_step"
      }
    }
  }
  attr {
    key: "_output_shapes"
    value {
      list {
        shape {
        }
      }
    }
  }
  attr {
    key: "container"
    value {
      s: ""
    }
  }
  attr {
    key: "dtype"
    value {
      type: DT_INT64
    }
  }
  attr {
    key: "shape"
    value {
      shape {
      }
    }
  }
  attr {
    key: "shared_name"
    value {
      s: "global_step"
    }
  }
}
node {
  name: "global_step/IsInitialized/VarIsInitializedOp"
  op: "VarIsInitializedOp"
  input: "global_step"
  device: "/replica:0/task:0/device:GPU:0"
  attr {
    key: "_output_shapes"
    value {
      list {
        shape {
        }
      }
    }
  }
}
node {
  name: "global_step/Assign"
  op: "AssignVariableOp"
  input: "global_step"
  input: "global_step/Initializer/zeros"
  device: "/replica:0/task:0/device:GPU:0"
  attr {
    key: "dtype"
    value {
      type: DT_INT64
    }
  }
}
node {
  name: "global_step/Read/ReadVariableOp"
  op: "ReadVariableOp"
  input: "global_step"
  device: "/replica:0/task:0/device:GPU:0"
  attr {
    key: "_output_shapes"
    value {
      list {
        shape {
        }
      }
    }
  }
  attr {
    key: "dtype"
    value {
      type: DT_INT64
    }
  }
}
node {
  name: "Identity/ReadVariableOp"
  op: "ReadVariableOp"
  input: "global_step"
  device: "/replica:0/task:0/device:GPU:0"
  attr {
    key: "_output_shapes"
    value {
      list {
        shape {
        }
      }
    }
  }
  attr {
    key: "dtype"
    value {
      type: DT_INT64
    }
  }
}
node {
  name: "Identity"
  op: "Identity"
  input: "Identity/ReadVariableOp"
  attr {
    key: "T"
    value {
      type: DT_INT64
    }
  }
  attr {
    key: "_output_shapes"
    value {
      list {
        shape {
        }
      }
    }
  }
}
node {
  name: "Identity_1"
  op: "Identity"
  input: "Identity"
  attr {
    key: "T"
    value {
      type: DT_INT64
    }
  }
  attr {
    key: "_output_shapes"
    value {
      list {
        shape {
        }
      }
    }
  }
}
node {
  name: "enqueue_input/random_shuffle_queue"
  op: "RandomShuffleQueueV2"
  device: "/replica:0/task:0/device:CPU:0"
  attr {
    key: "_output_shapes"
    value {
      list {
        shape {
        }
      }
    }
  }
  attr {
    key: "capacity"
    value {
      i: 1000
    }
  }
  attr {
    key: "component_types"
    value {
      list {
        type: DT_INT64
        type: DT_FLOAT
        type: DT_INT64
      }
    }
  }
  attr {
    key: "container"
    value {
      s: ""
    }
  }
  attr {
    key: "min_after_dequeue"
    value {
      i: 250
    }
  }
  attr {
    key: "seed"
    value {
      i: 0
    }
  }
  attr {
    key: "seed2"
    value {
      i: 0
    }
  }
  attr {
    key: "shapes"
    value {
      list {
        shape {
        }
        shape {
          dim {
            size: 64
          }
          dim {
            size: 64
          }
          dim {
            size: 3
          }
        }
        shape {
        }
      }
    }
  }
  attr {
    key: "shared_name"
    value {
      s: ""
    }
  }
}
node {
  name: "enqueue_input/Placeholder"
  op: "Placeholder"
  device: "/replica:0/task:0/device:CPU:0"
  attr {
    key: "_output_shapes"
    value {
      list {
        shape {
          unknown_rank: true
        }
      }
    }
  }
  attr {
    key: "dtype"
    value {
      type: DT_INT64
    }
  }
  attr {
    key: "shape"
    value {
      shape {
        unknown_rank: true
      }
    }
  }
}
node {
  name: "enqueue_input/Placeholder_1"
  op: "Placeholder"
  device: "/replica:0/task:0/device:CPU:0"
  attr {
    key: "_output_shapes"
    value {
      list {
        shape {
          unknown_rank: true
        }
      }
    }
  }
  attr {
    key: "dtype"
    value {
      type: DT_FLOAT
    }
  }
  attr {
    key: "shape"
    value {
      shape {
        unknown_rank: true
      }
    }
  }
}
node {
  name: "enqueue_input/Placeholder_2"
  op: "Placeholder"
  device: "/replica:0/task:0/device:CPU:0"
  attr {
    key: "_output_shapes"
    value {
      list {
        shape {
          unknown_rank: true
        }
      }
    }
  }
  attr {
    key: "dtype"
    value {
      type: DT_INT64
    }
  }
  attr {
    key: "shape"
    value {
      shape {
        unknown_rank: true
      }
    }
  }
}
node {
  name: "enqueue_input/random_shuffle_queue_EnqueueMany"
  op: "QueueEnqueueManyV2"
  input: "enqueue_input/random_shuffle_queue"
  input: "enqueue_input/Placeholder"
  input: "enqueue_input/Placeholder_1"
  input: "enqueue_input/Placeholder_2"
  device: "/replica:0/task:0/device:CPU:0"
  attr {
    key: "Tcomponents"
    value {
      list {
        type: DT_INT64
        type: DT_FLOAT
        type: DT_INT64
      }
    }
  }
  attr {
    key: "timeout_ms"
    value {
      i: -1
    }
  }
}
node {
  name: "enqueue_input/random_shuffle_queue_Close"
  op: "QueueCloseV2"
  input: "enqueue_input/random_shuffle_queue"
  device: "/replica:0/task:0/device:CPU:0"
  attr {
    key: "cancel_pending_enqueues"
    value {
      b: false
    }
  }
}
node {
  name: "enqueue_input/random_shuffle_queue_Close_1"
  op: "QueueCloseV2"
  input: "enqueue_input/random_shuffle_queue"
  device: "/replica:0/task:0/device:CPU:0"
  attr {
    key: "cancel_pending_enqueues"
    value {
      b: true
    }
  }
}
node {
  name: "enqueue_input/random_shuffle_queue_Size"
  op: "QueueSizeV2"
  input: "enqueue_input/random_shuffle_queue"
  device: "/replica:0/task:0/device:CPU:0"
  attr {
    key: "_output_shapes"
    value {
      list {
        shape {
        }
      }
    }
  }
}
node {
  name: "enqueue_input/sub/y"
  op: "Const"
  device: "/replica:0/task:0/device:CPU:0"
  attr {
    key: "_output_shapes"
    value {
      list {
        shape {
        }
      }
    }
  }
  attr {
    key: "dtype"
    value {
      type: DT_INT32
    }
  }
  attr {
    key: "value"
    value {
      tensor {
        dtype: DT_INT32
        tensor_shape {
        }
        int_val: 250
      }
    }
  }
}
node {
  name: "enqueue_input/sub"
  op: "Sub"
  input: "enqueue_input/random_shuffle_queue_Size"
  input: "enqueue_input/sub/y"
  device: "/replica:0/task:0/device:CPU:0"
  attr {
    key: "T"
    value {
      type: DT_INT32
    }
  }
  attr {
    key: "_output_shapes"
    value {
      list {
        shape {
        }
      }
    }
  }
}
node {
  name: "enqueue_input/Maximum/x"
  op: "Const"
  device: "/replica:0/task:0/device:CPU:0"
  attr {
    key: "_output_shapes"
    value {
      list {
        shape {
        }
      }
    }
  }
  attr {
    key: "dtype"
    value {
      type: DT_INT32
    }
  }
  attr {
    key: "value"
    value {
      tensor {
        dtype: DT_INT32
        tensor_shape {
        }
        int_val: 0
      }
    }
  }
}
node {
  name: "enqueue_input/Maximum"
  op: "Maximum"
  input: "enqueue_input/Maximum/x"
  input: "enqueue_input/sub"
  device: "/replica:0/task:0/device:CPU:0"
  attr {
    key: "T"
    value {
      type: DT_INT32
    }
  }
  attr {
    key: "_output_shapes"
    value {
      list {
        shape {
        }
      }
    }
  }
}
node {
  name: "enqueue_input/Cast"
  op: "Cast"
  input: "enqueue_input/Maximum"
  device: "/replica:0/task:0/device:CPU:0"
  attr {
    key: "DstT"
    value {
      type: DT_FLOAT
    }
  }
  attr {
    key: "SrcT"
    value {
      type: DT_INT32
    }
  }
  attr {
    key: "Truncate"
    value {
      b: false
    }
  }
  attr {
    key: "_output_shapes"
    value {
      list {
        shape {
        }
      }
    }
  }
}
node {
  name: "enqueue_input/mul/y"
  op: "Const"
  device: "/replica:0/task:0/device:CPU:0"
  attr {
    key: "_output_shapes"
    value {
      list {
        shape {
        }
      }
    }
  }
  attr {
    key: "dtype"
    value {
      type: DT_FLOAT
    }
  }
  attr {
    key: "value"
    value {
      tensor {
        dtype: DT_FLOAT
        tensor_shape {
        }
        float_val: 0.0013333333190530539
      }
    }
  }
}
node {
  name: "enqueue_input/mul"
  op: "Mul"
  input: "enqueue_input/Cast"
  input: "enqueue_input/mul/y"
  device: "/replica:0/task:0/device:CPU:0"
  attr {
    key: "T"
    value {
      type: DT_FLOAT
    }
  }
  attr {
    key: "_output_shapes"
    value {
      list {
        shape {
        }
      }
    }
  }
}
node {
  name: "enqueue_input/queue/enqueue_input/random_shuffle_queuefraction_over_250_of_750_full/tags"
  op: "Const"
  device: "/replica:0/task:0/device:CPU:0"
  attr {
    key: "_output_shapes"
    value {
      list {
        shape {
        }
      }
    }
  }
  attr {
    key: "dtype"
    value {
      type: DT_STRING
    }
  }
  attr {
    key: "value"
    value {
      tensor {
        dtype: DT_STRING
        tensor_shape {
        }
        string_val: "enqueue_input/queue/enqueue_input/random_shuffle_queuefraction_over_250_of_750_full"
      }
    }
  }
}
node {
  name: "enqueue_input/queue/enqueue_input/random_shuffle_queuefraction_over_250_of_750_full"
  op: "ScalarSummary"
  input: "enqueue_input/queue/enqueue_input/random_shuffle_queuefraction_over_250_of_750_full/tags"
  input: "enqueue_input/mul"
  device: "/replica:0/task:0/device:CPU:0"
  attr {
    key: "T"
    value {
      type: DT_FLOAT
    }
  }
  attr {
    key: "_output_shapes"
    value {
      list {
        shape {
        }
      }
    }
  }
}
node {
  name: "random_shuffle_queue_DequeueMany/n"
  op: "Const"
  device: "/replica:0/task:0/device:CPU:0"
  attr {
    key: "_output_shapes"
    value {
      list {
        shape {
        }
      }
    }
  }
  attr {
    key: "dtype"
    value {
      type: DT_INT32
    }
  }
  attr {
    key: "value"
    value {
      tensor {
        dtype: DT_INT32
        tensor_shape {
        }
        int_val: 128
      }
    }
  }
}
node {
  name: "random_shuffle_queue_DequeueMany"
  op: "QueueDequeueManyV2"
  input: "enqueue_input/random_shuffle_queue"
  input: "random_shuffle_queue_DequeueMany/n"
  device: "/replica:0/task:0/device:CPU:0"
  attr {
    key: "_output_shapes"
    value {
      list {
        shape {
          dim {
            size: 128
          }
        }
        shape {
          dim {
            size: 128
          }
          dim {
            size: 64
          }
          dim {
            size: 64
          }
          dim {
            size: 3
          }
        }
        shape {
          dim {
            size: 128
          }
        }
      }
    }
  }
  attr {
    key: "component_types"
    value {
      list {
        type: DT_INT64
        type: DT_FLOAT
        type: DT_INT64
      }
    }
  }
  attr {
    key: "timeout_ms"
    value {
      i: -1
    }
  }
}
node {
  name: "Const"
  op: "Const"
  attr {
    key: "_output_shapes"
    value {
      list {
        shape {
        }
      }
    }
  }
  attr {
    key: "dtype"
    value {
      type: DT_INT32
    }
  }
  attr {
    key: "value"
    value {
      tensor {
        dtype: DT_INT32
        tensor_shape {
        }
        int_val: 0
      }
    }
  }
}
node {
  name: "Reshape/shape"
  op: "Const"
  device: "/replica:0/task:0/device:GPU:0"
  attr {
    key: "_output_shapes"
    value {
      list {
        shape {
          dim {
            size: 4
          }
        }
      }
    }
  }
  attr {
    key: "dtype"
    value {
      type: DT_INT32
    }
  }
  attr {
    key: "value"
    value {
      tensor {
        dtype: DT_INT32
        tensor_shape {
          dim {
            size: 4
          }
        }
        tensor_content: "\377\377\377\377@\000\000\000@\000\000\000\003\000\000\000"
      }
    }
  }
}
node {
  name: "Reshape"
  op: "Reshape"
  input: "random_shuffle_queue_DequeueMany:1"
  input: "Reshape/shape"
  device: "/replica:0/task:0/device:GPU:0"
  attr {
    key: "T"
    value {
      type: DT_FLOAT
    }
  }
  attr {
    key: "Tshape"
    value {
      type: DT_INT32
    }
  }
  attr {
    key: "_output_shapes"
    value {
      list {
        shape {
          dim {
            size: 128
          }
          dim {
            size: 64
          }
          dim {
            size: 64
          }
          dim {
            size: 3
          }
        }
      }
    }
  }
}
node {
  name: "Shape"
  op: "Const"
  device: "/replica:0/task:0/device:GPU:0"
  attr {
    key: "_output_shapes"
    value {
      list {
        shape {
          dim {
            size: 4
          }
        }
      }
    }
  }
  attr {
    key: "dtype"
    value {
      type: DT_INT32
    }
  }
  attr {
    key: "value"
    value {
      tensor {
        dtype: DT_INT32
        tensor_shape {
          dim {
            size: 4
          }
        }
        tensor_content: "\200\000\000\000@\000\000\000@\000\000\000\003\000\000\000"
      }
    }
  }
}
node {
  name: "conv2d/kernel/Initializer/random_uniform/shape"
  op: "Const"
  attr {
    key: "_class"
    value {
      list {
        s: "loc:@conv2d/kernel"
      }
    }
  }
  attr {
    key: "_output_shapes"
    value {
      list {
        shape {
          dim {
            size: 4
          }
        }
      }
    }
  }
  attr {
    key: "dtype"
    value {
      type: DT_INT32
    }
  }
  attr {
    key: "value"
    value {
      tensor {
        dtype: DT_INT32
        tensor_shape {
          dim {
            size: 4
          }
        }
        tensor_content: "\003\000\000\000\003\000\000\000\003\000\000\000 \000\000\000"
      }
    }
  }
}
node {
  name: "conv2d/kernel/Initializer/random_uniform/min"
  op: "Const"
  attr {
    key: "_class"
    value {
      list {
        s: "loc:@conv2d/kernel"
      }
    }
  }
  attr {
    key: "_output_shapes"
    value {
      list {
        shape {
        }
      }
    }
  }
  attr {
    key: "dtype"
    value {
      type: DT_FLOAT
    }
  }
  attr {
    key: "value"
    value {
      tensor {
        dtype: DT_FLOAT
        tensor_shape {
        }
        float_val: -0.1380131095647812
      }
    }
  }
}
node {
  name: "conv2d/kernel/Initializer/random_uniform/max"
  op: "Const"
  attr {
    key: "_class"
    value {
      list {
        s: "loc:@conv2d/kernel"
      }
    }
  }
  attr {
    key: "_output_shapes"
    value {
      list {
        shape {
        }
      }
    }
  }
  attr {
    key: "dtype"
    value {
      type: DT_FLOAT
    }
  }
  attr {
    key: "value"
    value {
      tensor {
        dtype: DT_FLOAT
        tensor_shape {
        }
        float_val: 0.1380131095647812
      }
    }
  }
}
node {
  name: "conv2d/kernel/Initializer/random_uniform/RandomUniform"
  op: "RandomUniform"
  input: "conv2d/kernel/Initializer/random_uniform/shape"
  attr {
    key: "T"
    value {
      type: DT_INT32
    }
  }
  attr {
    key: "_class"
    value {
      list {
        s: "loc:@conv2d/kernel"
      }
    }
  }
  attr {
    key: "_output_shapes"
    value {
      list {
        shape {
          dim {
            size: 3
          }
          dim {
            size: 3
          }
          dim {
            size: 3
          }
          dim {
            size: 32
          }
        }
      }
    }
  }
  attr {
    key: "dtype"
    value {
      type: DT_FLOAT
    }
  }
  attr {
    key: "seed"
    value {
      i: 0
    }
  }
  attr {
    key: "seed2"
    value {
      i: 0
    }
  }
}
node {
  name: "conv2d/kernel/Initializer/random_uniform/sub"
  op: "Sub"
  input: "conv2d/kernel/Initializer/random_uniform/max"
  input: "conv2d/kernel/Initializer/random_uniform/min"
  attr {
    key: "T"
    value {
      type: DT_FLOAT
    }
  }
  attr {
    key: "_class"
    value {
      list {
        s: "loc:@conv2d/kernel"
      }
    }
  }
  attr {
    key: "_output_shapes"
    value {
      list {
        shape {
        }
      }
    }
  }
}
node {
  name: "conv2d/kernel/Initializer/random_uniform/mul"
  op: "Mul"
  input: "conv2d/kernel/Initializer/random_uniform/RandomUniform"
  input: "conv2d/kernel/Initializer/random_uniform/sub"
  attr {
    key: "T"
    value {
      type: DT_FLOAT
    }
  }
  attr {
    key: "_class"
    value {
      list {
        s: "loc:@conv2d/kernel"
      }
    }
  }
  attr {
    key: "_output_shapes"
    value {
      list {
        shape {
          dim {
            size: 3
          }
          dim {
            size: 3
          }
          dim {
            size: 3
          }
          dim {
            size: 32
          }
        }
      }
    }
  }
}
node {
  name: "conv2d/kernel/Initializer/random_uniform"
  op: "Add"
  input: "conv2d/kernel/Initializer/random_uniform/mul"
  input: "conv2d/kernel/Initializer/random_uniform/min"
  attr {
    key: "T"
    value {
      type: DT_FLOAT
    }
  }
  attr {
    key: "_class"
    value {
      list {
        s: "loc:@conv2d/kernel"
      }
    }
  }
  attr {
    key: "_output_shapes"
    value {
      list {
        shape {
          dim {
            size: 3
          }
          dim {
            size: 3
          }
          dim {
            size: 3
          }
          dim {
            size: 32
          }
        }
      }
    }
  }
}
node {
  name: "conv2d/kernel"
  op: "VarHandleOp"
  device: "/replica:0/task:0/device:GPU:0"
  attr {
    key: "_class"
    value {
      list {
        s: "loc:@conv2d/kernel"
      }
    }
  }
  attr {
    key: "_output_shapes"
    value {
      list {
        shape {
        }
      }
    }
  }
  attr {
    key: "container"
    value {
      s: ""
    }
  }
  attr {
    key: "dtype"
    value {
      type: DT_FLOAT
    }
  }
  attr {
    key: "shape"
    value {
      shape {
        dim {
          size: 3
        }
        dim {
          size: 3
        }
        dim {
          size: 3
        }
        dim {
          size: 32
        }
      }
    }
  }
  attr {
    key: "shared_name"
    value {
      s: "conv2d/kernel"
    }
  }
}
node {
  name: "conv2d/kernel/IsInitialized/VarIsInitializedOp"
  op: "VarIsInitializedOp"
  input: "conv2d/kernel"
  device: "/replica:0/task:0/device:GPU:0"
  attr {
    key: "_output_shapes"
    value {
      list {
        shape {
        }
      }
    }
  }
}
node {
  name: "conv2d/kernel/Assign"
  op: "AssignVariableOp"
  input: "conv2d/kernel"
  input: "conv2d/kernel/Initializer/random_uniform"
  device: "/replica:0/task:0/device:GPU:0"
  attr {
    key: "dtype"
    value {
      type: DT_FLOAT
    }
  }
}
node {
  name: "conv2d/kernel/Read/ReadVariableOp"
  op: "ReadVariableOp"
  input: "conv2d/kernel"
  device: "/replica:0/task:0/device:GPU:0"
  attr {
    key: "_output_shapes"
    value {
      list {
        shape {
          dim {
            size: 3
          }
          dim {
            size: 3
          }
          dim {
            size: 3
          }
          dim {
            size: 32
          }
        }
      }
    }
  }
  attr {
    key: "dtype"
    value {
      type: DT_FLOAT
    }
  }
}
node {
  name: "conv2d/bias/Initializer/zeros"
  op: "Const"
  attr {
    key: "_class"
    value {
      list {
        s: "loc:@conv2d/bias"
      }
    }
  }
  attr {
    key: "_output_shapes"
    value {
      list {
        shape {
          dim {
            size: 32
          }
        }
      }
    }
  }
  attr {
    key: "dtype"
    value {
      type: DT_FLOAT
    }
  }
  attr {
    key: "value"
    value {
      tensor {
        dtype: DT_FLOAT
        tensor_shape {
          dim {
            size: 32
          }
        }
        float_val: 0.0
      }
    }
  }
}
node {
  name: "conv2d/bias"
  op: "VarHandleOp"
  device: "/replica:0/task:0/device:GPU:0"
  attr {
    key: "_class"
    value {
      list {
        s: "loc:@conv2d/bias"
      }
    }
  }
  attr {
    key: "_output_shapes"
    value {
      list {
        shape {
        }
      }
    }
  }
  attr {
    key: "container"
    value {
      s: ""
    }
  }
  attr {
    key: "dtype"
    value {
      type: DT_FLOAT
    }
  }
  attr {
    key: "shape"
    value {
      shape {
        dim {
          size: 32
        }
      }
    }
  }
  attr {
    key: "shared_name"
    value {
      s: "conv2d/bias"
    }
  }
}
node {
  name: "conv2d/bias/IsInitialized/VarIsInitializedOp"
  op: "VarIsInitializedOp"
  input: "conv2d/bias"
  device: "/replica:0/task:0/device:GPU:0"
  attr {
    key: "_output_shapes"
    value {
      list {
        shape {
        }
      }
    }
  }
}
node {
  name: "conv2d/bias/Assign"
  op: "AssignVariableOp"
  input: "conv2d/bias"
  input: "conv2d/bias/Initializer/zeros"
  device: "/replica:0/task:0/device:GPU:0"
  attr {
    key: "dtype"
    value {
      type: DT_FLOAT
    }
  }
}
node {
  name: "conv2d/bias/Read/ReadVariableOp"
  op: "ReadVariableOp"
  input: "conv2d/bias"
  device: "/replica:0/task:0/device:GPU:0"
  attr {
    key: "_output_shapes"
    value {
      list {
        shape {
          dim {
            size: 32
          }
        }
      }
    }
  }
  attr {
    key: "dtype"
    value {
      type: DT_FLOAT
    }
  }
}
node {
  name: "conv2d/dilation_rate"
  op: "Const"
  device: "/replica:0/task:0/device:GPU:0"
  attr {
    key: "_output_shapes"
    value {
      list {
        shape {
          dim {
            size: 2
          }
        }
      }
    }
  }
  attr {
    key: "dtype"
    value {
      type: DT_INT32
    }
  }
  attr {
    key: "value"
    value {
      tensor {
        dtype: DT_INT32
        tensor_shape {
          dim {
            size: 2
          }
        }
        tensor_content: "\001\000\000\000\001\000\000\000"
      }
    }
  }
}
node {
  name: "conv2d/Conv2D/ReadVariableOp"
  op: "ReadVariableOp"
  input: "conv2d/kernel"
  device: "/replica:0/task:0/device:GPU:0"
  attr {
    key: "_output_shapes"
    value {
      list {
        shape {
          dim {
            size: 3
          }
          dim {
            size: 3
          }
          dim {
            size: 3
          }
          dim {
            size: 32
          }
        }
      }
    }
  }
  attr {
    key: "dtype"
    value {
      type: DT_FLOAT
    }
  }
}
node {
  name: "conv2d/Conv2D"
  op: "Conv2D"
  input: "Reshape"
  input: "conv2d/Conv2D/ReadVariableOp"
  device: "/replica:0/task:0/device:GPU:0"
  attr {
    key: "T"
    value {
      type: DT_FLOAT
    }
  }
  attr {
    key: "_output_shapes"
    value {
      list {
        shape {
          dim {
            size: 128
          }
          dim {
            size: 64
          }
          dim {
            size: 64
          }
          dim {
            size: 32
          }
        }
      }
    }
  }
  attr {
    key: "data_format"
    value {
      s: "NHWC"
    }
  }
  attr {
    key: "dilations"
    value {
      list {
        i: 1
        i: 1
        i: 1
        i: 1
      }
    }
  }
  attr {
    key: "explicit_paddings"
    value {
      list {
      }
    }
  }
  attr {
    key: "padding"
    value {
      s: "SAME"
    }
  }
  attr {
    key: "strides"
    value {
      list {
        i: 1
        i: 1
        i: 1
        i: 1
      }
    }
  }
  attr {
    key: "use_cudnn_on_gpu"
    value {
      b: true
    }
  }
}
node {
  name: "conv2d/BiasAdd/ReadVariableOp"
  op: "ReadVariableOp"
  input: "conv2d/bias"
  device: "/replica:0/task:0/device:GPU:0"
  attr {
    key: "_output_shapes"
    value {
      list {
        shape {
          dim {
            size: 32
          }
        }
      }
    }
  }
  attr {
    key: "dtype"
    value {
      type: DT_FLOAT
    }
  }
}
node {
  name: "conv2d/BiasAdd"
  op: "BiasAdd"
  input: "conv2d/Conv2D"
  input: "conv2d/BiasAdd/ReadVariableOp"
  device: "/replica:0/task:0/device:GPU:0"
  attr {
    key: "T"
    value {
      type: DT_FLOAT
    }
  }
  attr {
    key: "_output_shapes"
    value {
      list {
        shape {
          dim {
            size: 128
          }
          dim {
            size: 64
          }
          dim {
            size: 64
          }
          dim {
            size: 32
          }
        }
      }
    }
  }
  attr {
    key: "data_format"
    value {
      s: "NHWC"
    }
  }
}
node {
  name: "conv2d/Relu"
  op: "Relu"
  input: "conv2d/BiasAdd"
  device: "/replica:0/task:0/device:GPU:0"
  attr {
    key: "T"
    value {
      type: DT_FLOAT
    }
  }
  attr {
    key: "_output_shapes"
    value {
      list {
        shape {
          dim {
            size: 128
          }
          dim {
            size: 64
          }
          dim {
            size: 64
          }
          dim {
            size: 32
          }
        }
      }
    }
  }
}
node {
  name: "Shape_1"
  op: "Const"
  device: "/replica:0/task:0/device:GPU:0"
  attr {
    key: "_output_shapes"
    value {
      list {
        shape {
          dim {
            size: 4
          }
        }
      }
    }
  }
  attr {
    key: "dtype"
    value {
      type: DT_INT32
    }
  }
  attr {
    key: "value"
    value {
      tensor {
        dtype: DT_INT32
        tensor_shape {
          dim {
            size: 4
          }
        }
        tensor_content: "\200\000\000\000@\000\000\000@\000\000\000 \000\000\000"
      }
    }
  }
}
node {
  name: "max_pooling2d/MaxPool"
  op: "MaxPool"
  input: "conv2d/Relu"
  device: "/replica:0/task:0/device:GPU:0"
  attr {
    key: "T"
    value {
      type: DT_FLOAT
    }
  }
  attr {
    key: "_output_shapes"
    value {
      list {
        shape {
          dim {
            size: 128
          }
          dim {
            size: 32
          }
          dim {
            size: 32
          }
          dim {
            size: 32
          }
        }
      }
    }
  }
  attr {
    key: "data_format"
    value {
      s: "NHWC"
    }
  }
  attr {
    key: "ksize"
    value {
      list {
        i: 1
        i: 2
        i: 2
        i: 1
      }
    }
  }
  attr {
    key: "padding"
    value {
      s: "VALID"
    }
  }
  attr {
    key: "strides"
    value {
      list {
        i: 1
        i: 2
        i: 2
        i: 1
      }
    }
  }
}
node {
  name: "Shape_2"
  op: "Const"
  device: "/replica:0/task:0/device:GPU:0"
  attr {
    key: "_output_shapes"
    value {
      list {
        shape {
          dim {
            size: 4
          }
        }
      }
    }
  }
  attr {
    key: "dtype"
    value {
      type: DT_INT32
    }
  }
  attr {
    key: "value"
    value {
      tensor {
        dtype: DT_INT32
        tensor_shape {
          dim {
            size: 4
          }
        }
        tensor_content: "\200\000\000\000 \000\000\000 \000\000\000 \000\000\000"
      }
    }
  }
}
node {
  name: "norm1"
  op: "LRN"
  input: "max_pooling2d/MaxPool"
  device: "/replica:0/task:0/device:GPU:0"
  attr {
    key: "T"
    value {
      type: DT_FLOAT
    }
  }
  attr {
    key: "_output_shapes"
    value {
      list {
        shape {
          dim {
            size: 128
          }
          dim {
            size: 32
          }
          dim {
            size: 32
          }
          dim {
            size: 32
          }
        }
      }
    }
  }
  attr {
    key: "alpha"
    value {
      f: 0.00033333332976326346
    }
  }
  attr {
    key: "beta"
    value {
      f: 0.75
    }
  }
  attr {
    key: "bias"
    value {
      f: 1.0
    }
  }
  attr {
    key: "depth_radius"
    value {
      i: 4
    }
  }
}
node {
  name: "Shape_3"
  op: "Const"
  device: "/replica:0/task:0/device:GPU:0"
  attr {
    key: "_output_shapes"
    value {
      list {
        shape {
          dim {
            size: 4
          }
        }
      }
    }
  }
  attr {
    key: "dtype"
    value {
      type: DT_INT32
    }
  }
  attr {
    key: "value"
    value {
      tensor {
        dtype: DT_INT32
        tensor_shape {
          dim {
            size: 4
          }
        }
        tensor_content: "\200\000\000\000 \000\000\000 \000\000\000 \000\000\000"
      }
    }
  }
}
node {
  name: "conv2d_1/kernel/Initializer/random_uniform/shape"
  op: "Const"
  attr {
    key: "_class"
    value {
      list {
        s: "loc:@conv2d_1/kernel"
      }
    }
  }
  attr {
    key: "_output_shapes"
    value {
      list {
        shape {
          dim {
            size: 4
          }
        }
      }
    }
  }
  attr {
    key: "dtype"
    value {
      type: DT_INT32
    }
  }
  attr {
    key: "value"
    value {
      tensor {
        dtype: DT_INT32
        tensor_shape {
          dim {
            size: 4
          }
        }
        tensor_content: "\003\000\000\000\003\000\000\000 \000\000\000@\000\000\000"
      }
    }
  }
}
node {
  name: "conv2d_1/kernel/Initializer/random_uniform/min"
  op: "Const"
  attr {
    key: "_class"
    value {
      list {
        s: "loc:@conv2d_1/kernel"
      }
    }
  }
  attr {
    key: "_output_shapes"
    value {
      list {
        shape {
        }
      }
    }
  }
  attr {
    key: "dtype"
    value {
      type: DT_FLOAT
    }
  }
  attr {
    key: "value"
    value {
      tensor {
        dtype: DT_FLOAT
        tensor_shape {
        }
        float_val: -0.0833333358168602
      }
    }
  }
}
node {
  name: "conv2d_1/kernel/Initializer/random_uniform/max"
  op: "Const"
  attr {
    key: "_class"
    value {
      list {
        s: "loc:@conv2d_1/kernel"
      }
    }
  }
  attr {
    key: "_output_shapes"
    value {
      list {
        shape {
        }
      }
    }
  }
  attr {
    key: "dtype"
    value {
      type: DT_FLOAT
    }
  }
  attr {
    key: "value"
    value {
      tensor {
        dtype: DT_FLOAT
        tensor_shape {
        }
        float_val: 0.0833333358168602
      }
    }
  }
}
node {
  name: "conv2d_1/kernel/Initializer/random_uniform/RandomUniform"
  op: "RandomUniform"
  input: "conv2d_1/kernel/Initializer/random_uniform/shape"
  attr {
    key: "T"
    value {
      type: DT_INT32
    }
  }
  attr {
    key: "_class"
    value {
      list {
        s: "loc:@conv2d_1/kernel"
      }
    }
  }
  attr {
    key: "_output_shapes"
    value {
      list {
        shape {
          dim {
            size: 3
          }
          dim {
            size: 3
          }
          dim {
            size: 32
          }
          dim {
            size: 64
          }
        }
      }
    }
  }
  attr {
    key: "dtype"
    value {
      type: DT_FLOAT
    }
  }
  attr {
    key: "seed"
    value {
      i: 0
    }
  }
  attr {
    key: "seed2"
    value {
      i: 0
    }
  }
}
node {
  name: "conv2d_1/kernel/Initializer/random_uniform/sub"
  op: "Sub"
  input: "conv2d_1/kernel/Initializer/random_uniform/max"
  input: "conv2d_1/kernel/Initializer/random_uniform/min"
  attr {
    key: "T"
    value {
      type: DT_FLOAT
    }
  }
  attr {
    key: "_class"
    value {
      list {
        s: "loc:@conv2d_1/kernel"
      }
    }
  }
  attr {
    key: "_output_shapes"
    value {
      list {
        shape {
        }
      }
    }
  }
}
node {
  name: "conv2d_1/kernel/Initializer/random_uniform/mul"
  op: "Mul"
  input: "conv2d_1/kernel/Initializer/random_uniform/RandomUniform"
  input: "conv2d_1/kernel/Initializer/random_uniform/sub"
  attr {
    key: "T"
    value {
      type: DT_FLOAT
    }
  }
  attr {
    key: "_class"
    value {
      list {
        s: "loc:@conv2d_1/kernel"
      }
    }
  }
  attr {
    key: "_output_shapes"
    value {
      list {
        shape {
          dim {
            size: 3
          }
          dim {
            size: 3
          }
          dim {
            size: 32
          }
          dim {
            size: 64
          }
        }
      }
    }
  }
}
node {
  name: "conv2d_1/kernel/Initializer/random_uniform"
  op: "Add"
  input: "conv2d_1/kernel/Initializer/random_uniform/mul"
  input: "conv2d_1/kernel/Initializer/random_uniform/min"
  attr {
    key: "T"
    value {
      type: DT_FLOAT
    }
  }
  attr {
    key: "_class"
    value {
      list {
        s: "loc:@conv2d_1/kernel"
      }
    }
  }
  attr {
    key: "_output_shapes"
    value {
      list {
        shape {
          dim {
            size: 3
          }
          dim {
            size: 3
          }
          dim {
            size: 32
          }
          dim {
            size: 64
          }
        }
      }
    }
  }
}
node {
  name: "conv2d_1/kernel"
  op: "VarHandleOp"
  device: "/replica:0/task:0/device:GPU:0"
  attr {
    key: "_class"
    value {
      list {
        s: "loc:@conv2d_1/kernel"
      }
    }
  }
  attr {
    key: "_output_shapes"
    value {
      list {
        shape {
        }
      }
    }
  }
  attr {
    key: "container"
    value {
      s: ""
    }
  }
  attr {
    key: "dtype"
    value {
      type: DT_FLOAT
    }
  }
  attr {
    key: "shape"
    value {
      shape {
        dim {
          size: 3
        }
        dim {
          size: 3
        }
        dim {
          size: 32
        }
        dim {
          size: 64
        }
      }
    }
  }
  attr {
    key: "shared_name"
    value {
      s: "conv2d_1/kernel"
    }
  }
}
node {
  name: "conv2d_1/kernel/IsInitialized/VarIsInitializedOp"
  op: "VarIsInitializedOp"
  input: "conv2d_1/kernel"
  device: "/replica:0/task:0/device:GPU:0"
  attr {
    key: "_output_shapes"
    value {
      list {
        shape {
        }
      }
    }
  }
}
node {
  name: "conv2d_1/kernel/Assign"
  op: "AssignVariableOp"
  input: "conv2d_1/kernel"
  input: "conv2d_1/kernel/Initializer/random_uniform"
  device: "/replica:0/task:0/device:GPU:0"
  attr {
    key: "dtype"
    value {
      type: DT_FLOAT
    }
  }
}
node {
  name: "conv2d_1/kernel/Read/ReadVariableOp"
  op: "ReadVariableOp"
  input: "conv2d_1/kernel"
  device: "/replica:0/task:0/device:GPU:0"
  attr {
    key: "_output_shapes"
    value {
      list {
        shape {
          dim {
            size: 3
          }
          dim {
            size: 3
          }
          dim {
            size: 32
          }
          dim {
            size: 64
          }
        }
      }
    }
  }
  attr {
    key: "dtype"
    value {
      type: DT_FLOAT
    }
  }
}
node {
  name: "conv2d_1/bias/Initializer/zeros"
  op: "Const"
  attr {
    key: "_class"
    value {
      list {
        s: "loc:@conv2d_1/bias"
      }
    }
  }
  attr {
    key: "_output_shapes"
    value {
      list {
        shape {
          dim {
            size: 64
          }
        }
      }
    }
  }
  attr {
    key: "dtype"
    value {
      type: DT_FLOAT
    }
  }
  attr {
    key: "value"
    value {
      tensor {
        dtype: DT_FLOAT
        tensor_shape {
          dim {
            size: 64
          }
        }
        float_val: 0.0
      }
    }
  }
}
node {
  name: "conv2d_1/bias"
  op: "VarHandleOp"
  device: "/replica:0/task:0/device:GPU:0"
  attr {
    key: "_class"
    value {
      list {
        s: "loc:@conv2d_1/bias"
      }
    }
  }
  attr {
    key: "_output_shapes"
    value {
      list {
        shape {
        }
      }
    }
  }
  attr {
    key: "container"
    value {
      s: ""
    }
  }
  attr {
    key: "dtype"
    value {
      type: DT_FLOAT
    }
  }
  attr {
    key: "shape"
    value {
      shape {
        dim {
          size: 64
        }
      }
    }
  }
  attr {
    key: "shared_name"
    value {
      s: "conv2d_1/bias"
    }
  }
}
node {
  name: "conv2d_1/bias/IsInitialized/VarIsInitializedOp"
  op: "VarIsInitializedOp"
  input: "conv2d_1/bias"
  device: "/replica:0/task:0/device:GPU:0"
  attr {
    key: "_output_shapes"
    value {
      list {
        shape {
        }
      }
    }
  }
}
node {
  name: "conv2d_1/bias/Assign"
  op: "AssignVariableOp"
  input: "conv2d_1/bias"
  input: "conv2d_1/bias/Initializer/zeros"
  device: "/replica:0/task:0/device:GPU:0"
  attr {
    key: "dtype"
    value {
      type: DT_FLOAT
    }
  }
}
node {
  name: "conv2d_1/bias/Read/ReadVariableOp"
  op: "ReadVariableOp"
  input: "conv2d_1/bias"
  device: "/replica:0/task:0/device:GPU:0"
  attr {
    key: "_output_shapes"
    value {
      list {
        shape {
          dim {
            size: 64
          }
        }
      }
    }
  }
  attr {
    key: "dtype"
    value {
      type: DT_FLOAT
    }
  }
}
node {
  name: "conv2d_1/dilation_rate"
  op: "Const"
  device: "/replica:0/task:0/device:GPU:0"
  attr {
    key: "_output_shapes"
    value {
      list {
        shape {
          dim {
            size: 2
          }
        }
      }
    }
  }
  attr {
    key: "dtype"
    value {
      type: DT_INT32
    }
  }
  attr {
    key: "value"
    value {
      tensor {
        dtype: DT_INT32
        tensor_shape {
          dim {
            size: 2
          }
        }
        tensor_content: "\001\000\000\000\001\000\000\000"
      }
    }
  }
}
node {
  name: "conv2d_1/Conv2D/ReadVariableOp"
  op: "ReadVariableOp"
  input: "conv2d_1/kernel"
  device: "/replica:0/task:0/device:GPU:0"
  attr {
    key: "_output_shapes"
    value {
      list {
        shape {
          dim {
            size: 3
          }
          dim {
            size: 3
          }
          dim {
            size: 32
          }
          dim {
            size: 64
          }
        }
      }
    }
  }
  attr {
    key: "dtype"
    value {
      type: DT_FLOAT
    }
  }
}
node {
  name: "conv2d_1/Conv2D"
  op: "Conv2D"
  input: "norm1"
  input: "conv2d_1/Conv2D/ReadVariableOp"
  device: "/replica:0/task:0/device:GPU:0"
  attr {
    key: "T"
    value {
      type: DT_FLOAT
    }
  }
  attr {
    key: "_output_shapes"
    value {
      list {
        shape {
          dim {
            size: 128
          }
          dim {
            size: 30
          }
          dim {
            size: 30
          }
          dim {
            size: 64
          }
        }
      }
    }
  }
  attr {
    key: "data_format"
    value {
      s: "NHWC"
    }
  }
  attr {
    key: "dilations"
    value {
      list {
        i: 1
        i: 1
        i: 1
        i: 1
      }
    }
  }
  attr {
    key: "explicit_paddings"
    value {
      list {
      }
    }
  }
  attr {
    key: "padding"
    value {
      s: "VALID"
    }
  }
  attr {
    key: "strides"
    value {
      list {
        i: 1
        i: 1
        i: 1
        i: 1
      }
    }
  }
  attr {
    key: "use_cudnn_on_gpu"
    value {
      b: true
    }
  }
}
node {
  name: "conv2d_1/BiasAdd/ReadVariableOp"
  op: "ReadVariableOp"
  input: "conv2d_1/bias"
  device: "/replica:0/task:0/device:GPU:0"
  attr {
    key: "_output_shapes"
    value {
      list {
        shape {
          dim {
            size: 64
          }
        }
      }
    }
  }
  attr {
    key: "dtype"
    value {
      type: DT_FLOAT
    }
  }
}
node {
  name: "conv2d_1/BiasAdd"
  op: "BiasAdd"
  input: "conv2d_1/Conv2D"
  input: "conv2d_1/BiasAdd/ReadVariableOp"
  device: "/replica:0/task:0/device:GPU:0"
  attr {
    key: "T"
    value {
      type: DT_FLOAT
    }
  }
  attr {
    key: "_output_shapes"
    value {
      list {
        shape {
          dim {
            size: 128
          }
          dim {
            size: 30
          }
          dim {
            size: 30
          }
          dim {
            size: 64
          }
        }
      }
    }
  }
  attr {
    key: "data_format"
    value {
      s: "NHWC"
    }
  }
}
node {
  name: "conv2d_1/Relu"
  op: "Relu"
  input: "conv2d_1/BiasAdd"
  device: "/replica:0/task:0/device:GPU:0"
  attr {
    key: "T"
    value {
      type: DT_FLOAT
    }
  }
  attr {
    key: "_output_shapes"
    value {
      list {
        shape {
          dim {
            size: 128
          }
          dim {
            size: 30
          }
          dim {
            size: 30
          }
          dim {
            size: 64
          }
        }
      }
    }
  }
}
node {
  name: "Shape_4"
  op: "Const"
  device: "/replica:0/task:0/device:GPU:0"
  attr {
    key: "_output_shapes"
    value {
      list {
        shape {
          dim {
            size: 4
          }
        }
      }
    }
  }
  attr {
    key: "dtype"
    value {
      type: DT_INT32
    }
  }
  attr {
    key: "value"
    value {
      tensor {
        dtype: DT_INT32
        tensor_shape {
          dim {
            size: 4
          }
        }
        tensor_content: "\200\000\000\000\036\000\000\000\036\000\000\000@\000\000\000"
      }
    }
  }
}
node {
  name: "max_pooling2d_1/MaxPool"
  op: "MaxPool"
  input: "conv2d_1/Relu"
  device: "/replica:0/task:0/device:GPU:0"
  attr {
    key: "T"
    value {
      type: DT_FLOAT
    }
  }
  attr {
    key: "_output_shapes"
    value {
      list {
        shape {
          dim {
            size: 128
          }
          dim {
            size: 15
          }
          dim {
            size: 15
          }
          dim {
            size: 64
          }
        }
      }
    }
  }
  attr {
    key: "data_format"
    value {
      s: "NHWC"
    }
  }
  attr {
    key: "ksize"
    value {
      list {
        i: 1
        i: 2
        i: 2
        i: 1
      }
    }
  }
  attr {
    key: "padding"
    value {
      s: "VALID"
    }
  }
  attr {
    key: "strides"
    value {
      list {
        i: 1
        i: 2
        i: 2
        i: 1
      }
    }
  }
}
node {
  name: "Shape_5"
  op: "Const"
  device: "/replica:0/task:0/device:GPU:0"
  attr {
    key: "_output_shapes"
    value {
      list {
        shape {
          dim {
            size: 4
          }
        }
      }
    }
  }
  attr {
    key: "dtype"
    value {
      type: DT_INT32
    }
  }
  attr {
    key: "value"
    value {
      tensor {
        dtype: DT_INT32
        tensor_shape {
          dim {
            size: 4
          }
        }
        tensor_content: "\200\000\000\000\017\000\000\000\017\000\000\000@\000\000\000"
      }
    }
  }
}
node {
  name: "Reshape_1/shape"
  op: "Const"
  device: "/replica:0/task:0/device:GPU:0"
  attr {
    key: "_output_shapes"
    value {
      list {
        shape {
          dim {
            size: 2
          }
        }
      }
    }
  }
  attr {
    key: "dtype"
    value {
      type: DT_INT32
    }
  }
  attr {
    key: "value"
    value {
      tensor {
        dtype: DT_INT32
        tensor_shape {
          dim {
            size: 2
          }
        }
        tensor_content: "\377\377\377\377@8\000\000"
      }
    }
  }
}
node {
  name: "Reshape_1"
  op: "Reshape"
  input: "max_pooling2d_1/MaxPool"
  input: "Reshape_1/shape"
  device: "/replica:0/task:0/device:GPU:0"
  attr {
    key: "T"
    value {
      type: DT_FLOAT
    }
  }
  attr {
    key: "Tshape"
    value {
      type: DT_INT32
    }
  }
  attr {
    key: "_output_shapes"
    value {
      list {
        shape {
          dim {
            size: 128
          }
          dim {
            size: 14400
          }
        }
      }
    }
  }
}
node {
  name: "Shape_6"
  op: "Const"
  device: "/replica:0/task:0/device:GPU:0"
  attr {
    key: "_output_shapes"
    value {
      list {
        shape {
          dim {
            size: 2
          }
        }
      }
    }
  }
  attr {
    key: "dtype"
    value {
      type: DT_INT32
    }
  }
  attr {
    key: "value"
    value {
      tensor {
        dtype: DT_INT32
        tensor_shape {
          dim {
            size: 2
          }
        }
        tensor_content: "\200\000\000\000@8\000\000"
      }
    }
  }
}
node {
  name: "dense/kernel/Initializer/random_uniform/shape"
  op: "Const"
  attr {
    key: "_class"
    value {
      list {
        s: "loc:@dense/kernel"
      }
    }
  }
  attr {
    key: "_output_shapes"
    value {
      list {
        shape {
          dim {
            size: 2
          }
        }
      }
    }
  }
  attr {
    key: "dtype"
    value {
      type: DT_INT32
    }
  }
  attr {
    key: "value"
    value {
      tensor {
        dtype: DT_INT32
        tensor_shape {
          dim {
            size: 2
          }
        }
        tensor_content: "@8\000\000\000\001\000\000"
      }
    }
  }
}
node {
  name: "dense/kernel/Initializer/random_uniform/min"
  op: "Const"
  attr {
    key: "_class"
    value {
      list {
        s: "loc:@dense/kernel"
      }
    }
  }
  attr {
    key: "_output_shapes"
    value {
      list {
        shape {
        }
      }
    }
  }
  attr {
    key: "dtype"
    value {
      type: DT_FLOAT
    }
  }
  attr {
    key: "value"
    value {
      tensor {
        dtype: DT_FLOAT
        tensor_shape {
        }
        float_val: -0.020233355462551117
      }
    }
  }
}
node {
  name: "dense/kernel/Initializer/random_uniform/max"
  op: "Const"
  attr {
    key: "_class"
    value {
      list {
        s: "loc:@dense/kernel"
      }
    }
  }
  attr {
    key: "_output_shapes"
    value {
      list {
        shape {
        }
      }
    }
  }
  attr {
    key: "dtype"
    value {
      type: DT_FLOAT
    }
  }
  attr {
    key: "value"
    value {
      tensor {
        dtype: DT_FLOAT
        tensor_shape {
        }
        float_val: 0.020233355462551117
      }
    }
  }
}
node {
  name: "dense/kernel/Initializer/random_uniform/RandomUniform"
  op: "RandomUniform"
  input: "dense/kernel/Initializer/random_uniform/shape"
  attr {
    key: "T"
    value {
      type: DT_INT32
    }
  }
  attr {
    key: "_class"
    value {
      list {
        s: "loc:@dense/kernel"
      }
    }
  }
  attr {
    key: "_output_shapes"
    value {
      list {
        shape {
          dim {
            size: 14400
          }
          dim {
            size: 256
          }
        }
      }
    }
  }
  attr {
    key: "dtype"
    value {
      type: DT_FLOAT
    }
  }
  attr {
    key: "seed"
    value {
      i: 0
    }
  }
  attr {
    key: "seed2"
    value {
      i: 0
    }
  }
}
node {
  name: "dense/kernel/Initializer/random_uniform/sub"
  op: "Sub"
  input: "dense/kernel/Initializer/random_uniform/max"
  input: "dense/kernel/Initializer/random_uniform/min"
  attr {
    key: "T"
    value {
      type: DT_FLOAT
    }
  }
  attr {
    key: "_class"
    value {
      list {
        s: "loc:@dense/kernel"
      }
    }
  }
  attr {
    key: "_output_shapes"
    value {
      list {
        shape {
        }
      }
    }
  }
}
node {
  name: "dense/kernel/Initializer/random_uniform/mul"
  op: "Mul"
  input: "dense/kernel/Initializer/random_uniform/RandomUniform"
  input: "dense/kernel/Initializer/random_uniform/sub"
  attr {
    key: "T"
    value {
      type: DT_FLOAT
    }
  }
  attr {
    key: "_class"
    value {
      list {
        s: "loc:@dense/kernel"
      }
    }
  }
  attr {
    key: "_output_shapes"
    value {
      list {
        shape {
          dim {
            size: 14400
          }
          dim {
            size: 256
          }
        }
      }
    }
  }
}
node {
  name: "dense/kernel/Initializer/random_uniform"
  op: "Add"
  input: "dense/kernel/Initializer/random_uniform/mul"
  input: "dense/kernel/Initializer/random_uniform/min"
  attr {
    key: "T"
    value {
      type: DT_FLOAT
    }
  }
  attr {
    key: "_class"
    value {
      list {
        s: "loc:@dense/kernel"
      }
    }
  }
  attr {
    key: "_output_shapes"
    value {
      list {
        shape {
          dim {
            size: 14400
          }
          dim {
            size: 256
          }
        }
      }
    }
  }
}
node {
  name: "dense/kernel"
  op: "VarHandleOp"
  device: "/replica:0/task:0/device:GPU:0"
  attr {
    key: "_class"
    value {
      list {
        s: "loc:@dense/kernel"
      }
    }
  }
  attr {
    key: "_output_shapes"
    value {
      list {
        shape {
        }
      }
    }
  }
  attr {
    key: "container"
    value {
      s: ""
    }
  }
  attr {
    key: "dtype"
    value {
      type: DT_FLOAT
    }
  }
  attr {
    key: "shape"
    value {
      shape {
        dim {
          size: 14400
        }
        dim {
          size: 256
        }
      }
    }
  }
  attr {
    key: "shared_name"
    value {
      s: "dense/kernel"
    }
  }
}
node {
  name: "dense/kernel/IsInitialized/VarIsInitializedOp"
  op: "VarIsInitializedOp"
  input: "dense/kernel"
  device: "/replica:0/task:0/device:GPU:0"
  attr {
    key: "_output_shapes"
    value {
      list {
        shape {
        }
      }
    }
  }
}
node {
  name: "dense/kernel/Assign"
  op: "AssignVariableOp"
  input: "dense/kernel"
  input: "dense/kernel/Initializer/random_uniform"
  device: "/replica:0/task:0/device:GPU:0"
  attr {
    key: "dtype"
    value {
      type: DT_FLOAT
    }
  }
}
node {
  name: "dense/kernel/Read/ReadVariableOp"
  op: "ReadVariableOp"
  input: "dense/kernel"
  device: "/replica:0/task:0/device:GPU:0"
  attr {
    key: "_output_shapes"
    value {
      list {
        shape {
          dim {
            size: 14400
          }
          dim {
            size: 256
          }
        }
      }
    }
  }
  attr {
    key: "dtype"
    value {
      type: DT_FLOAT
    }
  }
}
node {
  name: "dense/bias/Initializer/zeros"
  op: "Const"
  attr {
    key: "_class"
    value {
      list {
        s: "loc:@dense/bias"
      }
    }
  }
  attr {
    key: "_output_shapes"
    value {
      list {
        shape {
          dim {
            size: 256
          }
        }
      }
    }
  }
  attr {
    key: "dtype"
    value {
      type: DT_FLOAT
    }
  }
  attr {
    key: "value"
    value {
      tensor {
        dtype: DT_FLOAT
        tensor_shape {
          dim {
            size: 256
          }
        }
        float_val: 0.0
      }
    }
  }
}
node {
  name: "dense/bias"
  op: "VarHandleOp"
  device: "/replica:0/task:0/device:GPU:0"
  attr {
    key: "_class"
    value {
      list {
        s: "loc:@dense/bias"
      }
    }
  }
  attr {
    key: "_output_shapes"
    value {
      list {
        shape {
        }
      }
    }
  }
  attr {
    key: "container"
    value {
      s: ""
    }
  }
  attr {
    key: "dtype"
    value {
      type: DT_FLOAT
    }
  }
  attr {
    key: "shape"
    value {
      shape {
        dim {
          size: 256
        }
      }
    }
  }
  attr {
    key: "shared_name"
    value {
      s: "dense/bias"
    }
  }
}
node {
  name: "dense/bias/IsInitialized/VarIsInitializedOp"
  op: "VarIsInitializedOp"
  input: "dense/bias"
  device: "/replica:0/task:0/device:GPU:0"
  attr {
    key: "_output_shapes"
    value {
      list {
        shape {
        }
      }
    }
  }
}
node {
  name: "dense/bias/Assign"
  op: "AssignVariableOp"
  input: "dense/bias"
  input: "dense/bias/Initializer/zeros"
  device: "/replica:0/task:0/device:GPU:0"
  attr {
    key: "dtype"
    value {
      type: DT_FLOAT
    }
  }
}
node {
  name: "dense/bias/Read/ReadVariableOp"
  op: "ReadVariableOp"
  input: "dense/bias"
  device: "/replica:0/task:0/device:GPU:0"
  attr {
    key: "_output_shapes"
    value {
      list {
        shape {
          dim {
            size: 256
          }
        }
      }
    }
  }
  attr {
    key: "dtype"
    value {
      type: DT_FLOAT
    }
  }
}
node {
  name: "dense/MatMul/ReadVariableOp"
  op: "ReadVariableOp"
  input: "dense/kernel"
  device: "/replica:0/task:0/device:GPU:0"
  attr {
    key: "_output_shapes"
    value {
      list {
        shape {
          dim {
            size: 14400
          }
          dim {
            size: 256
          }
        }
      }
    }
  }
  attr {
    key: "dtype"
    value {
      type: DT_FLOAT
    }
  }
}
node {
  name: "dense/MatMul"
  op: "MatMul"
  input: "Reshape_1"
  input: "dense/MatMul/ReadVariableOp"
  device: "/replica:0/task:0/device:GPU:0"
  attr {
    key: "T"
    value {
      type: DT_FLOAT
    }
  }
  attr {
    key: "_output_shapes"
    value {
      list {
        shape {
          dim {
            size: 128
          }
          dim {
            size: 256
          }
        }
      }
    }
  }
  attr {
    key: "transpose_a"
    value {
      b: false
    }
  }
  attr {
    key: "transpose_b"
    value {
      b: false
    }
  }
}
node {
  name: "dense/BiasAdd/ReadVariableOp"
  op: "ReadVariableOp"
  input: "dense/bias"
  device: "/replica:0/task:0/device:GPU:0"
  attr {
    key: "_output_shapes"
    value {
      list {
        shape {
          dim {
            size: 256
          }
        }
      }
    }
  }
  attr {
    key: "dtype"
    value {
      type: DT_FLOAT
    }
  }
}
node {
  name: "dense/BiasAdd"
  op: "BiasAdd"
  input: "dense/MatMul"
  input: "dense/BiasAdd/ReadVariableOp"
  device: "/replica:0/task:0/device:GPU:0"
  attr {
    key: "T"
    value {
      type: DT_FLOAT
    }
  }
  attr {
    key: "_output_shapes"
    value {
      list {
        shape {
          dim {
            size: 128
          }
          dim {
            size: 256
          }
        }
      }
    }
  }
  attr {
    key: "data_format"
    value {
      s: "NHWC"
    }
  }
}
node {
  name: "dense/Relu"
  op: "Relu"
  input: "dense/BiasAdd"
  device: "/replica:0/task:0/device:GPU:0"
  attr {
    key: "T"
    value {
      type: DT_FLOAT
    }
  }
  attr {
    key: "_output_shapes"
    value {
      list {
        shape {
          dim {
            size: 128
          }
          dim {
            size: 256
          }
        }
      }
    }
  }
}
node {
  name: "Shape_7"
  op: "Const"
  device: "/replica:0/task:0/device:GPU:0"
  attr {
    key: "_output_shapes"
    value {
      list {
        shape {
          dim {
            size: 2
          }
        }
      }
    }
  }
  attr {
    key: "dtype"
    value {
      type: DT_INT32
    }
  }
  attr {
    key: "value"
    value {
      tensor {
        dtype: DT_INT32
        tensor_shape {
          dim {
            size: 2
          }
        }
        tensor_content: "\200\000\000\000\000\001\000\000"
      }
    }
  }
}
node {
  name: "dense_1/kernel/Initializer/random_uniform/shape"
  op: "Const"
  attr {
    key: "_class"
    value {
      list {
        s: "loc:@dense_1/kernel"
      }
    }
  }
  attr {
    key: "_output_shapes"
    value {
      list {
        shape {
          dim {
            size: 2
          }
        }
      }
    }
  }
  attr {
    key: "dtype"
    value {
      type: DT_INT32
    }
  }
  attr {
    key: "value"
    value {
      tensor {
        dtype: DT_INT32
        tensor_shape {
          dim {
            size: 2
          }
        }
        tensor_content: "\000\001\000\000\006\000\000\000"
      }
    }
  }
}
node {
  name: "dense_1/kernel/Initializer/random_uniform/min"
  op: "Const"
  attr {
    key: "_class"
    value {
      list {
        s: "loc:@dense_1/kernel"
      }
    }
  }
  attr {
    key: "_output_shapes"
    value {
      list {
        shape {
        }
      }
    }
  }
  attr {
    key: "dtype"
    value {
      type: DT_FLOAT
    }
  }
  attr {
    key: "value"
    value {
      tensor {
        dtype: DT_FLOAT
        tensor_shape {
        }
        float_val: -0.15132997930049896
      }
    }
  }
}
node {
  name: "dense_1/kernel/Initializer/random_uniform/max"
  op: "Const"
  attr {
    key: "_class"
    value {
      list {
        s: "loc:@dense_1/kernel"
      }
    }
  }
  attr {
    key: "_output_shapes"
    value {
      list {
        shape {
        }
      }
    }
  }
  attr {
    key: "dtype"
    value {
      type: DT_FLOAT
    }
  }
  attr {
    key: "value"
    value {
      tensor {
        dtype: DT_FLOAT
        tensor_shape {
        }
        float_val: 0.15132997930049896
      }
    }
  }
}
node {
  name: "dense_1/kernel/Initializer/random_uniform/RandomUniform"
  op: "RandomUniform"
  input: "dense_1/kernel/Initializer/random_uniform/shape"
  attr {
    key: "T"
    value {
      type: DT_INT32
    }
  }
  attr {
    key: "_class"
    value {
      list {
        s: "loc:@dense_1/kernel"
      }
    }
  }
  attr {
    key: "_output_shapes"
    value {
      list {
        shape {
          dim {
            size: 256
          }
          dim {
            size: 6
          }
        }
      }
    }
  }
  attr {
    key: "dtype"
    value {
      type: DT_FLOAT
    }
  }
  attr {
    key: "seed"
    value {
      i: 0
    }
  }
  attr {
    key: "seed2"
    value {
      i: 0
    }
  }
}
node {
  name: "dense_1/kernel/Initializer/random_uniform/sub"
  op: "Sub"
  input: "dense_1/kernel/Initializer/random_uniform/max"
  input: "dense_1/kernel/Initializer/random_uniform/min"
  attr {
    key: "T"
    value {
      type: DT_FLOAT
    }
  }
  attr {
    key: "_class"
    value {
      list {
        s: "loc:@dense_1/kernel"
      }
    }
  }
  attr {
    key: "_output_shapes"
    value {
      list {
        shape {
        }
      }
    }
  }
}
node {
  name: "dense_1/kernel/Initializer/random_uniform/mul"
  op: "Mul"
  input: "dense_1/kernel/Initializer/random_uniform/RandomUniform"
  input: "dense_1/kernel/Initializer/random_uniform/sub"
  attr {
    key: "T"
    value {
      type: DT_FLOAT
    }
  }
  attr {
    key: "_class"
    value {
      list {
        s: "loc:@dense_1/kernel"
      }
    }
  }
  attr {
    key: "_output_shapes"
    value {
      list {
        shape {
          dim {
            size: 256
          }
          dim {
            size: 6
          }
        }
      }
    }
  }
}
node {
  name: "dense_1/kernel/Initializer/random_uniform"
  op: "Add"
  input: "dense_1/kernel/Initializer/random_uniform/mul"
  input: "dense_1/kernel/Initializer/random_uniform/min"
  attr {
    key: "T"
    value {
      type: DT_FLOAT
    }
  }
  attr {
    key: "_class"
    value {
      list {
        s: "loc:@dense_1/kernel"
      }
    }
  }
  attr {
    key: "_output_shapes"
    value {
      list {
        shape {
          dim {
            size: 256
          }
          dim {
            size: 6
          }
        }
      }
    }
  }
}
node {
  name: "dense_1/kernel"
  op: "VarHandleOp"
  device: "/replica:0/task:0/device:GPU:0"
  attr {
    key: "_class"
    value {
      list {
        s: "loc:@dense_1/kernel"
      }
    }
  }
  attr {
    key: "_output_shapes"
    value {
      list {
        shape {
        }
      }
    }
  }
  attr {
    key: "container"
    value {
      s: ""
    }
  }
  attr {
    key: "dtype"
    value {
      type: DT_FLOAT
    }
  }
  attr {
    key: "shape"
    value {
      shape {
        dim {
          size: 256
        }
        dim {
          size: 6
        }
      }
    }
  }
  attr {
    key: "shared_name"
    value {
      s: "dense_1/kernel"
    }
  }
}
node {
  name: "dense_1/kernel/IsInitialized/VarIsInitializedOp"
  op: "VarIsInitializedOp"
  input: "dense_1/kernel"
  device: "/replica:0/task:0/device:GPU:0"
  attr {
    key: "_output_shapes"
    value {
      list {
        shape {
        }
      }
    }
  }
}
node {
  name: "dense_1/kernel/Assign"
  op: "AssignVariableOp"
  input: "dense_1/kernel"
  input: "dense_1/kernel/Initializer/random_uniform"
  device: "/replica:0/task:0/device:GPU:0"
  attr {
    key: "dtype"
    value {
      type: DT_FLOAT
    }
  }
}
node {
  name: "dense_1/kernel/Read/ReadVariableOp"
  op: "ReadVariableOp"
  input: "dense_1/kernel"
  device: "/replica:0/task:0/device:GPU:0"
  attr {
    key: "_output_shapes"
    value {
      list {
        shape {
          dim {
            size: 256
          }
          dim {
            size: 6
          }
        }
      }
    }
  }
  attr {
    key: "dtype"
    value {
      type: DT_FLOAT
    }
  }
}
node {
  name: "dense_1/bias/Initializer/zeros"
  op: "Const"
  attr {
    key: "_class"
    value {
      list {
        s: "loc:@dense_1/bias"
      }
    }
  }
  attr {
    key: "_output_shapes"
    value {
      list {
        shape {
          dim {
            size: 6
          }
        }
      }
    }
  }
  attr {
    key: "dtype"
    value {
      type: DT_FLOAT
    }
  }
  attr {
    key: "value"
    value {
      tensor {
        dtype: DT_FLOAT
        tensor_shape {
          dim {
            size: 6
          }
        }
        float_val: 0.0
      }
    }
  }
}
node {
  name: "dense_1/bias"
  op: "VarHandleOp"
  device: "/replica:0/task:0/device:GPU:0"
  attr {
    key: "_class"
    value {
      list {
        s: "loc:@dense_1/bias"
      }
    }
  }
  attr {
    key: "_output_shapes"
    value {
      list {
        shape {
        }
      }
    }
  }
  attr {
    key: "container"
    value {
      s: ""
    }
  }
  attr {
    key: "dtype"
    value {
      type: DT_FLOAT
    }
  }
  attr {
    key: "shape"
    value {
      shape {
        dim {
          size: 6
        }
      }
    }
  }
  attr {
    key: "shared_name"
    value {
      s: "dense_1/bias"
    }
  }
}
node {
  name: "dense_1/bias/IsInitialized/VarIsInitializedOp"
  op: "VarIsInitializedOp"
  input: "dense_1/bias"
  device: "/replica:0/task:0/device:GPU:0"
  attr {
    key: "_output_shapes"
    value {
      list {
        shape {
        }
      }
    }
  }
}
node {
  name: "dense_1/bias/Assign"
  op: "AssignVariableOp"
  input: "dense_1/bias"
  input: "dense_1/bias/Initializer/zeros"
  device: "/replica:0/task:0/device:GPU:0"
  attr {
    key: "dtype"
    value {
      type: DT_FLOAT
    }
  }
}
node {
  name: "dense_1/bias/Read/ReadVariableOp"
  op: "ReadVariableOp"
  input: "dense_1/bias"
  device: "/replica:0/task:0/device:GPU:0"
  attr {
    key: "_output_shapes"
    value {
      list {
        shape {
          dim {
            size: 6
          }
        }
      }
    }
  }
  attr {
    key: "dtype"
    value {
      type: DT_FLOAT
    }
  }
}
node {
  name: "dense_1/MatMul/ReadVariableOp"
  op: "ReadVariableOp"
  input: "dense_1/kernel"
  device: "/replica:0/task:0/device:GPU:0"
  attr {
    key: "_output_shapes"
    value {
      list {
        shape {
          dim {
            size: 256
          }
          dim {
            size: 6
          }
        }
      }
    }
  }
  attr {
    key: "dtype"
    value {
      type: DT_FLOAT
    }
  }
}
node {
  name: "dense_1/MatMul"
  op: "MatMul"
  input: "dense/Relu"
  input: "dense_1/MatMul/ReadVariableOp"
  device: "/replica:0/task:0/device:GPU:0"
  attr {
    key: "T"
    value {
      type: DT_FLOAT
    }
  }
  attr {
    key: "_output_shapes"
    value {
      list {
        shape {
          dim {
            size: 128
          }
          dim {
            size: 6
          }
        }
      }
    }
  }
  attr {
    key: "transpose_a"
    value {
      b: false
    }
  }
  attr {
    key: "transpose_b"
    value {
      b: false
    }
  }
}
node {
  name: "dense_1/BiasAdd/ReadVariableOp"
  op: "ReadVariableOp"
  input: "dense_1/bias"
  device: "/replica:0/task:0/device:GPU:0"
  attr {
    key: "_output_shapes"
    value {
      list {
        shape {
          dim {
            size: 6
          }
        }
      }
    }
  }
  attr {
    key: "dtype"
    value {
      type: DT_FLOAT
    }
  }
}
node {
  name: "dense_1/BiasAdd"
  op: "BiasAdd"
  input: "dense_1/MatMul"
  input: "dense_1/BiasAdd/ReadVariableOp"
  device: "/replica:0/task:0/device:GPU:0"
  attr {
    key: "T"
    value {
      type: DT_FLOAT
    }
  }
  attr {
    key: "_output_shapes"
    value {
      list {
        shape {
          dim {
            size: 128
          }
          dim {
            size: 6
          }
        }
      }
    }
  }
  attr {
    key: "data_format"
    value {
      s: "NHWC"
    }
  }
}
node {
  name: "Shape_8"
  op: "Const"
  device: "/replica:0/task:0/device:GPU:0"
  attr {
    key: "_output_shapes"
    value {
      list {
        shape {
          dim {
            size: 2
          }
        }
      }
    }
  }
  attr {
    key: "dtype"
    value {
      type: DT_INT32
    }
  }
  attr {
    key: "value"
    value {
      tensor {
        dtype: DT_INT32
        tensor_shape {
          dim {
            size: 2
          }
        }
        tensor_content: "\200\000\000\000\006\000\000\000"
      }
    }
  }
}
node {
  name: "ArgMax/dimension"
  op: "Const"
  device: "/replica:0/task:0/device:GPU:0"
  attr {
    key: "_output_shapes"
    value {
      list {
        shape {
        }
      }
    }
  }
  attr {
    key: "dtype"
    value {
      type: DT_INT32
    }
  }
  attr {
    key: "value"
    value {
      tensor {
        dtype: DT_INT32
        tensor_shape {
        }
        int_val: 1
      }
    }
  }
}
node {
  name: "ArgMax"
  op: "ArgMax"
  input: "dense_1/BiasAdd"
  input: "ArgMax/dimension"
  device: "/replica:0/task:0/device:GPU:0"
  attr {
    key: "T"
    value {
      type: DT_FLOAT
    }
  }
  attr {
    key: "Tidx"
    value {
      type: DT_INT32
    }
  }
  attr {
    key: "_output_shapes"
    value {
      list {
        shape {
          dim {
            size: 128
          }
        }
      }
    }
  }
  attr {
    key: "output_type"
    value {
      type: DT_INT64
    }
  }
}
node {
  name: "softmax_tensor"
  op: "Softmax"
  input: "dense_1/BiasAdd"
  device: "/replica:0/task:0/device:GPU:0"
  attr {
    key: "T"
    value {
      type: DT_FLOAT
    }
  }
  attr {
    key: "_output_shapes"
    value {
      list {
        shape {
          dim {
            size: 128
          }
          dim {
            size: 6
          }
        }
      }
    }
  }
}
node {
  name: "sparse_softmax_cross_entropy_loss/Const"
  op: "Const"
  device: "/replica:0/task:0/device:GPU:0"
  attr {
    key: "_output_shapes"
    value {
      list {
        shape {
        }
      }
    }
  }
  attr {
    key: "dtype"
    value {
      type: DT_FLOAT
    }
  }
  attr {
    key: "value"
    value {
      tensor {
        dtype: DT_FLOAT
        tensor_shape {
        }
        float_val: 1.0
      }
    }
  }
}
node {
  name: "sparse_softmax_cross_entropy_loss/xentropy/Shape"
  op: "Const"
  device: "/replica:0/task:0/device:GPU:0"
  attr {
    key: "_output_shapes"
    value {
      list {
        shape {
          dim {
            size: 1
          }
        }
      }
    }
  }
  attr {
    key: "dtype"
    value {
      type: DT_INT32
    }
  }
  attr {
    key: "value"
    value {
      tensor {
        dtype: DT_INT32
        tensor_shape {
          dim {
            size: 1
          }
        }
        int_val: 128
      }
    }
  }
}
node {
  name: "sparse_softmax_cross_entropy_loss/xentropy/xentropy"
  op: "SparseSoftmaxCrossEntropyWithLogits"
  input: "dense_1/BiasAdd"
  input: "random_shuffle_queue_DequeueMany:2"
  device: "/replica:0/task:0/device:GPU:0"
  attr {
    key: "T"
    value {
      type: DT_FLOAT
    }
  }
  attr {
    key: "Tlabels"
    value {
      type: DT_INT64
    }
  }
  attr {
    key: "_output_shapes"
    value {
      list {
        shape {
          dim {
            size: 128
          }
        }
        shape {
          dim {
            size: 128
          }
          dim {
            size: 6
          }
        }
      }
    }
  }
}
node {
  name: "sparse_softmax_cross_entropy_loss/assert_broadcastable/weights/shape"
  op: "Const"
  device: "/replica:0/task:0/device:GPU:0"
  attr {
    key: "_output_shapes"
    value {
      list {
        shape {
          dim {
          }
        }
      }
    }
  }
  attr {
    key: "dtype"
    value {
      type: DT_INT32
    }
  }
  attr {
    key: "value"
    value {
      tensor {
        dtype: DT_INT32
        tensor_shape {
          dim {
          }
        }
      }
    }
  }
}
node {
  name: "sparse_softmax_cross_entropy_loss/assert_broadcastable/weights/rank"
  op: "Const"
  device: "/replica:0/task:0/device:GPU:0"
  attr {
    key: "_output_shapes"
    value {
      list {
        shape {
        }
      }
    }
  }
  attr {
    key: "dtype"
    value {
      type: DT_INT32
    }
  }
  attr {
    key: "value"
    value {
      tensor {
        dtype: DT_INT32
        tensor_shape {
        }
        int_val: 0
      }
    }
  }
}
node {
  name: "sparse_softmax_cross_entropy_loss/assert_broadcastable/values/shape"
  op: "Const"
  device: "/replica:0/task:0/device:GPU:0"
  attr {
    key: "_output_shapes"
    value {
      list {
        shape {
          dim {
            size: 1
          }
        }
      }
    }
  }
  attr {
    key: "dtype"
    value {
      type: DT_INT32
    }
  }
  attr {
    key: "value"
    value {
      tensor {
        dtype: DT_INT32
        tensor_shape {
          dim {
            size: 1
          }
        }
        int_val: 128
      }
    }
  }
}
node {
  name: "sparse_softmax_cross_entropy_loss/assert_broadcastable/values/rank"
  op: "Const"
  device: "/replica:0/task:0/device:GPU:0"
  attr {
    key: "_output_shapes"
    value {
      list {
        shape {
        }
      }
    }
  }
  attr {
    key: "dtype"
    value {
      type: DT_INT32
    }
  }
  attr {
    key: "value"
    value {
      tensor {
        dtype: DT_INT32
        tensor_shape {
        }
        int_val: 1
      }
    }
  }
}
node {
  name: "sparse_softmax_cross_entropy_loss/assert_broadcastable/static_scalar_check_success"
  op: "NoOp"
  device: "/replica:0/task:0/device:GPU:0"
}
node {
  name: "sparse_softmax_cross_entropy_loss/Mul"
  op: "Mul"
  input: "sparse_softmax_cross_entropy_loss/xentropy/xentropy"
  input: "sparse_softmax_cross_entropy_loss/Const"
  input: "^sparse_softmax_cross_entropy_loss/assert_broadcastable/static_scalar_check_success"
  device: "/replica:0/task:0/device:GPU:0"
  attr {
    key: "T"
    value {
      type: DT_FLOAT
    }
  }
  attr {
    key: "_output_shapes"
    value {
      list {
        shape {
          dim {
            size: 128
          }
        }
      }
    }
  }
}
node {
  name: "sparse_softmax_cross_entropy_loss/Const_1"
  op: "Const"
  input: "^sparse_softmax_cross_entropy_loss/assert_broadcastable/static_scalar_check_success"
  device: "/replica:0/task:0/device:GPU:0"
  attr {
    key: "_output_shapes"
    value {
      list {
        shape {
          dim {
            size: 1
          }
        }
      }
    }
  }
  attr {
    key: "dtype"
    value {
      type: DT_INT32
    }
  }
  attr {
    key: "value"
    value {
      tensor {
        dtype: DT_INT32
        tensor_shape {
          dim {
            size: 1
          }
        }
        int_val: 0
      }
    }
  }
}
node {
  name: "sparse_softmax_cross_entropy_loss/Sum"
  op: "Sum"
  input: "sparse_softmax_cross_entropy_loss/Mul"
  input: "sparse_softmax_cross_entropy_loss/Const_1"
  device: "/replica:0/task:0/device:GPU:0"
  attr {
    key: "T"
    value {
      type: DT_FLOAT
    }
  }
  attr {
    key: "Tidx"
    value {
      type: DT_INT32
    }
  }
  attr {
    key: "_output_shapes"
    value {
      list {
        shape {
        }
      }
    }
  }
  attr {
    key: "keep_dims"
    value {
      b: false
    }
  }
}
node {
  name: "sparse_softmax_cross_entropy_loss/num_present/Equal/y"
  op: "Const"
  input: "^sparse_softmax_cross_entropy_loss/assert_broadcastable/static_scalar_check_success"
  device: "/replica:0/task:0/device:GPU:0"
  attr {
    key: "_output_shapes"
    value {
      list {
        shape {
        }
      }
    }
  }
  attr {
    key: "dtype"
    value {
      type: DT_FLOAT
    }
  }
  attr {
    key: "value"
    value {
      tensor {
        dtype: DT_FLOAT
        tensor_shape {
        }
        float_val: 0.0
      }
    }
  }
}
node {
  name: "sparse_softmax_cross_entropy_loss/num_present/Equal"
  op: "Equal"
  input: "sparse_softmax_cross_entropy_loss/Const"
  input: "sparse_softmax_cross_entropy_loss/num_present/Equal/y"
  device: "/replica:0/task:0/device:GPU:0"
  attr {
    key: "T"
    value {
      type: DT_FLOAT
    }
  }
  attr {
    key: "_output_shapes"
    value {
      list {
        shape {
        }
      }
    }
  }
  attr {
    key: "incompatible_shape_error"
    value {
      b: true
    }
  }
}
node {
  name: "sparse_softmax_cross_entropy_loss/num_present/zeros_like"
  op: "Const"
  input: "^sparse_softmax_cross_entropy_loss/assert_broadcastable/static_scalar_check_success"
  device: "/replica:0/task:0/device:GPU:0"
  attr {
    key: "_output_shapes"
    value {
      list {
        shape {
        }
      }
    }
  }
  attr {
    key: "dtype"
    value {
      type: DT_FLOAT
    }
  }
  attr {
    key: "value"
    value {
      tensor {
        dtype: DT_FLOAT
        tensor_shape {
        }
        float_val: 0.0
      }
    }
  }
}
node {
  name: "sparse_softmax_cross_entropy_loss/num_present/ones_like/Shape"
  op: "Const"
  input: "^sparse_softmax_cross_entropy_loss/assert_broadcastable/static_scalar_check_success"
  device: "/replica:0/task:0/device:GPU:0"
  attr {
    key: "_output_shapes"
    value {
      list {
        shape {
          dim {
          }
        }
      }
    }
  }
  attr {
    key: "dtype"
    value {
      type: DT_INT32
    }
  }
  attr {
    key: "value"
    value {
      tensor {
        dtype: DT_INT32
        tensor_shape {
          dim {
          }
        }
      }
    }
  }
}
node {
  name: "sparse_softmax_cross_entropy_loss/num_present/ones_like/Const"
  op: "Const"
  input: "^sparse_softmax_cross_entropy_loss/assert_broadcastable/static_scalar_check_success"
  device: "/replica:0/task:0/device:GPU:0"
  attr {
    key: "_output_shapes"
    value {
      list {
        shape {
        }
      }
    }
  }
  attr {
    key: "dtype"
    value {
      type: DT_FLOAT
    }
  }
  attr {
    key: "value"
    value {
      tensor {
        dtype: DT_FLOAT
        tensor_shape {
        }
        float_val: 1.0
      }
    }
  }
}
node {
  name: "sparse_softmax_cross_entropy_loss/num_present/ones_like"
  op: "Fill"
  input: "sparse_softmax_cross_entropy_loss/num_present/ones_like/Shape"
  input: "sparse_softmax_cross_entropy_loss/num_present/ones_like/Const"
  device: "/replica:0/task:0/device:GPU:0"
  attr {
    key: "T"
    value {
      type: DT_FLOAT
    }
  }
  attr {
    key: "_output_shapes"
    value {
      list {
        shape {
        }
      }
    }
  }
  attr {
    key: "index_type"
    value {
      type: DT_INT32
    }
  }
}
node {
  name: "sparse_softmax_cross_entropy_loss/num_present/Select"
  op: "Select"
  input: "sparse_softmax_cross_entropy_loss/num_present/Equal"
  input: "sparse_softmax_cross_entropy_loss/num_present/zeros_like"
  input: "sparse_softmax_cross_entropy_loss/num_present/ones_like"
  device: "/replica:0/task:0/device:GPU:0"
  attr {
    key: "T"
    value {
      type: DT_FLOAT
    }
  }
  attr {
    key: "_output_shapes"
    value {
      list {
        shape {
        }
      }
    }
  }
}
node {
  name: "sparse_softmax_cross_entropy_loss/num_present/broadcast_weights/assert_broadcastable/weights/shape"
  op: "Const"
  input: "^sparse_softmax_cross_entropy_loss/assert_broadcastable/static_scalar_check_success"
  device: "/replica:0/task:0/device:GPU:0"
  attr {
    key: "_output_shapes"
    value {
      list {
        shape {
          dim {
          }
        }
      }
    }
  }
  attr {
    key: "dtype"
    value {
      type: DT_INT32
    }
  }
  attr {
    key: "value"
    value {
      tensor {
        dtype: DT_INT32
        tensor_shape {
          dim {
          }
        }
      }
    }
  }
}
node {
  name: "sparse_softmax_cross_entropy_loss/num_present/broadcast_weights/assert_broadcastable/weights/rank"
  op: "Const"
  input: "^sparse_softmax_cross_entropy_loss/assert_broadcastable/static_scalar_check_success"
  device: "/replica:0/task:0/device:GPU:0"
  attr {
    key: "_output_shapes"
    value {
      list {
        shape {
        }
      }
    }
  }
  attr {
    key: "dtype"
    value {
      type: DT_INT32
    }
  }
  attr {
    key: "value"
    value {
      tensor {
        dtype: DT_INT32
        tensor_shape {
        }
        int_val: 0
      }
    }
  }
}
node {
  name: "sparse_softmax_cross_entropy_loss/num_present/broadcast_weights/assert_broadcastable/values/shape"
  op: "Const"
  input: "^sparse_softmax_cross_entropy_loss/assert_broadcastable/static_scalar_check_success"
  device: "/replica:0/task:0/device:GPU:0"
  attr {
    key: "_output_shapes"
    value {
      list {
        shape {
          dim {
            size: 1
          }
        }
      }
    }
  }
  attr {
    key: "dtype"
    value {
      type: DT_INT32
    }
  }
  attr {
    key: "value"
    value {
      tensor {
        dtype: DT_INT32
        tensor_shape {
          dim {
            size: 1
          }
        }
        int_val: 128
      }
    }
  }
}
node {
  name: "sparse_softmax_cross_entropy_loss/num_present/broadcast_weights/assert_broadcastable/values/rank"
  op: "Const"
  input: "^sparse_softmax_cross_entropy_loss/assert_broadcastable/static_scalar_check_success"
  device: "/replica:0/task:0/device:GPU:0"
  attr {
    key: "_output_shapes"
    value {
      list {
        shape {
        }
      }
    }
  }
  attr {
    key: "dtype"
    value {
      type: DT_INT32
    }
  }
  attr {
    key: "value"
    value {
      tensor {
        dtype: DT_INT32
        tensor_shape {
        }
        int_val: 1
      }
    }
  }
}
node {
  name: "sparse_softmax_cross_entropy_loss/num_present/broadcast_weights/assert_broadcastable/static_scalar_check_success"
  op: "NoOp"
  input: "^sparse_softmax_cross_entropy_loss/assert_broadcastable/static_scalar_check_success"
  device: "/replica:0/task:0/device:GPU:0"
}
node {
  name: "sparse_softmax_cross_entropy_loss/num_present/broadcast_weights/ones_like/Shape"
  op: "Const"
  input: "^sparse_softmax_cross_entropy_loss/assert_broadcastable/static_scalar_check_success"
  input: "^sparse_softmax_cross_entropy_loss/num_present/broadcast_weights/assert_broadcastable/static_scalar_check_success"
  device: "/replica:0/task:0/device:GPU:0"
  attr {
    key: "_output_shapes"
    value {
      list {
        shape {
          dim {
            size: 1
          }
        }
      }
    }
  }
  attr {
    key: "dtype"
    value {
      type: DT_INT32
    }
  }
  attr {
    key: "value"
    value {
      tensor {
        dtype: DT_INT32
        tensor_shape {
          dim {
            size: 1
          }
        }
        int_val: 128
      }
    }
  }
}
node {
  name: "sparse_softmax_cross_entropy_loss/num_present/broadcast_weights/ones_like/Const"
  op: "Const"
  input: "^sparse_softmax_cross_entropy_loss/assert_broadcastable/static_scalar_check_success"
  input: "^sparse_softmax_cross_entropy_loss/num_present/broadcast_weights/assert_broadcastable/static_scalar_check_success"
  device: "/replica:0/task:0/device:GPU:0"
  attr {
    key: "_output_shapes"
    value {
      list {
        shape {
        }
      }
    }
  }
  attr {
    key: "dtype"
    value {
      type: DT_FLOAT
    }
  }
  attr {
    key: "value"
    value {
      tensor {
        dtype: DT_FLOAT
        tensor_shape {
        }
        float_val: 1.0
      }
    }
  }
}
node {
  name: "sparse_softmax_cross_entropy_loss/num_present/broadcast_weights/ones_like"
  op: "Fill"
  input: "sparse_softmax_cross_entropy_loss/num_present/broadcast_weights/ones_like/Shape"
  input: "sparse_softmax_cross_entropy_loss/num_present/broadcast_weights/ones_like/Const"
  device: "/replica:0/task:0/device:GPU:0"
  attr {
    key: "T"
    value {
      type: DT_FLOAT
    }
  }
  attr {
    key: "_output_shapes"
    value {
      list {
        shape {
          dim {
            size: 128
          }
        }
      }
    }
  }
  attr {
    key: "index_type"
    value {
      type: DT_INT32
    }
  }
}
node {
  name: "sparse_softmax_cross_entropy_loss/num_present/broadcast_weights"
  op: "Mul"
  input: "sparse_softmax_cross_entropy_loss/num_present/Select"
  input: "sparse_softmax_cross_entropy_loss/num_present/broadcast_weights/ones_like"
  device: "/replica:0/task:0/device:GPU:0"
  attr {
    key: "T"
    value {
      type: DT_FLOAT
    }
  }
  attr {
    key: "_output_shapes"
    value {
      list {
        shape {
          dim {
            size: 128
          }
        }
      }
    }
  }
}
node {
  name: "sparse_softmax_cross_entropy_loss/num_present/Const"
  op: "Const"
  input: "^sparse_softmax_cross_entropy_loss/assert_broadcastable/static_scalar_check_success"
  device: "/replica:0/task:0/device:GPU:0"
  attr {
    key: "_output_shapes"
    value {
      list {
        shape {
          dim {
            size: 1
          }
        }
      }
    }
  }
  attr {
    key: "dtype"
    value {
      type: DT_INT32
    }
  }
  attr {
    key: "value"
    value {
      tensor {
        dtype: DT_INT32
        tensor_shape {
          dim {
            size: 1
          }
        }
        int_val: 0
      }
    }
  }
}
node {
  name: "sparse_softmax_cross_entropy_loss/num_present"
  op: "Sum"
  input: "sparse_softmax_cross_entropy_loss/num_present/broadcast_weights"
  input: "sparse_softmax_cross_entropy_loss/num_present/Const"
  device: "/replica:0/task:0/device:GPU:0"
  attr {
    key: "T"
    value {
      type: DT_FLOAT
    }
  }
  attr {
    key: "Tidx"
    value {
      type: DT_INT32
    }
  }
  attr {
    key: "_output_shapes"
    value {
      list {
        shape {
        }
      }
    }
  }
  attr {
    key: "keep_dims"
    value {
      b: false
    }
  }
}
node {
  name: "sparse_softmax_cross_entropy_loss/Const_2"
  op: "Const"
  input: "^sparse_softmax_cross_entropy_loss/assert_broadcastable/static_scalar_check_success"
  device: "/replica:0/task:0/device:GPU:0"
  attr {
    key: "_output_shapes"
    value {
      list {
        shape {
          dim {
          }
        }
      }
    }
  }
  attr {
    key: "dtype"
    value {
      type: DT_INT32
    }
  }
  attr {
    key: "value"
    value {
      tensor {
        dtype: DT_INT32
        tensor_shape {
          dim {
          }
        }
      }
    }
  }
}
node {
  name: "sparse_softmax_cross_entropy_loss/Sum_1"
  op: "Sum"
  input: "sparse_softmax_cross_entropy_loss/Sum"
  input: "sparse_softmax_cross_entropy_loss/Const_2"
  device: "/replica:0/task:0/device:GPU:0"
  attr {
    key: "T"
    value {
      type: DT_FLOAT
    }
  }
  attr {
    key: "Tidx"
    value {
      type: DT_INT32
    }
  }
  attr {
    key: "_output_shapes"
    value {
      list {
        shape {
        }
      }
    }
  }
  attr {
    key: "keep_dims"
    value {
      b: false
    }
  }
}
node {
  name: "sparse_softmax_cross_entropy_loss/value"
  op: "DivNoNan"
  input: "sparse_softmax_cross_entropy_loss/Sum_1"
  input: "sparse_softmax_cross_entropy_loss/num_present"
  device: "/replica:0/task:0/device:GPU:0"
  attr {
    key: "T"
    value {
      type: DT_FLOAT
    }
  }
  attr {
    key: "_output_shapes"
    value {
      list {
        shape {
        }
      }
    }
  }
}
node {
  name: "gradients/Shape"
  op: "Const"
  device: "/replica:0/task:0/device:GPU:0"
  attr {
    key: "_output_shapes"
    value {
      list {
        shape {
          dim {
          }
        }
      }
    }
  }
  attr {
    key: "dtype"
    value {
      type: DT_INT32
    }
  }
  attr {
    key: "value"
    value {
      tensor {
        dtype: DT_INT32
        tensor_shape {
          dim {
          }
        }
      }
    }
  }
}
node {
  name: "gradients/grad_ys_0"
  op: "Const"
  device: "/replica:0/task:0/device:GPU:0"
  attr {
    key: "_output_shapes"
    value {
      list {
        shape {
        }
      }
    }
  }
  attr {
    key: "dtype"
    value {
      type: DT_FLOAT
    }
  }
  attr {
    key: "value"
    value {
      tensor {
        dtype: DT_FLOAT
        tensor_shape {
        }
        float_val: 1.0
      }
    }
  }
}
node {
  name: "gradients/Fill"
  op: "Fill"
  input: "gradients/Shape"
  input: "gradients/grad_ys_0"
  device: "/replica:0/task:0/device:GPU:0"
  attr {
    key: "T"
    value {
      type: DT_FLOAT
    }
  }
  attr {
    key: "_output_shapes"
    value {
      list {
        shape {
        }
      }
    }
  }
  attr {
    key: "index_type"
    value {
      type: DT_INT32
    }
  }
}
node {
  name: "gradients/sparse_softmax_cross_entropy_loss/value_grad/Shape"
  op: "Const"
  device: "/replica:0/task:0/device:GPU:0"
  attr {
    key: "_output_shapes"
    value {
      list {
        shape {
          dim {
          }
        }
      }
    }
  }
  attr {
    key: "dtype"
    value {
      type: DT_INT32
    }
  }
  attr {
    key: "value"
    value {
      tensor {
        dtype: DT_INT32
        tensor_shape {
          dim {
          }
        }
      }
    }
  }
}
node {
  name: "gradients/sparse_softmax_cross_entropy_loss/value_grad/Shape_1"
  op: "Const"
  device: "/replica:0/task:0/device:GPU:0"
  attr {
    key: "_output_shapes"
    value {
      list {
        shape {
          dim {
          }
        }
      }
    }
  }
  attr {
    key: "dtype"
    value {
      type: DT_INT32
    }
  }
  attr {
    key: "value"
    value {
      tensor {
        dtype: DT_INT32
        tensor_shape {
          dim {
          }
        }
      }
    }
  }
}
node {
  name: "gradients/sparse_softmax_cross_entropy_loss/value_grad/BroadcastGradientArgs"
  op: "BroadcastGradientArgs"
  input: "gradients/sparse_softmax_cross_entropy_loss/value_grad/Shape"
  input: "gradients/sparse_softmax_cross_entropy_loss/value_grad/Shape_1"
  device: "/replica:0/task:0/device:GPU:0"
  attr {
    key: "T"
    value {
      type: DT_INT32
    }
  }
  attr {
    key: "_output_shapes"
    value {
      list {
        shape {
          dim {
            size: -1
          }
        }
        shape {
          dim {
            size: -1
          }
        }
      }
    }
  }
}
node {
  name: "gradients/sparse_softmax_cross_entropy_loss/value_grad/div_no_nan"
  op: "DivNoNan"
  input: "gradients/Fill"
  input: "sparse_softmax_cross_entropy_loss/num_present"
  device: "/replica:0/task:0/device:GPU:0"
  attr {
    key: "T"
    value {
      type: DT_FLOAT
    }
  }
  attr {
    key: "_output_shapes"
    value {
      list {
        shape {
        }
      }
    }
  }
}
node {
  name: "gradients/sparse_softmax_cross_entropy_loss/value_grad/Sum"
  op: "Sum"
  input: "gradients/sparse_softmax_cross_entropy_loss/value_grad/div_no_nan"
  input: "gradients/sparse_softmax_cross_entropy_loss/value_grad/BroadcastGradientArgs"
  device: "/replica:0/task:0/device:GPU:0"
  attr {
    key: "T"
    value {
      type: DT_FLOAT
    }
  }
  attr {
    key: "Tidx"
    value {
      type: DT_INT32
    }
  }
  attr {
    key: "_output_shapes"
    value {
      list {
        shape {
        }
      }
    }
  }
  attr {
    key: "keep_dims"
    value {
      b: false
    }
  }
}
node {
  name: "gradients/sparse_softmax_cross_entropy_loss/value_grad/Reshape"
  op: "Reshape"
  input: "gradients/sparse_softmax_cross_entropy_loss/value_grad/Sum"
  input: "gradients/sparse_softmax_cross_entropy_loss/value_grad/Shape"
  device: "/replica:0/task:0/device:GPU:0"
  attr {
    key: "T"
    value {
      type: DT_FLOAT
    }
  }
  attr {
    key: "Tshape"
    value {
      type: DT_INT32
    }
  }
  attr {
    key: "_output_shapes"
    value {
      list {
        shape {
        }
      }
    }
  }
}
node {
  name: "gradients/sparse_softmax_cross_entropy_loss/value_grad/Neg"
  op: "Neg"
  input: "sparse_softmax_cross_entropy_loss/Sum_1"
  device: "/replica:0/task:0/device:GPU:0"
  attr {
    key: "T"
    value {
      type: DT_FLOAT
    }
  }
  attr {
    key: "_output_shapes"
    value {
      list {
        shape {
        }
      }
    }
  }
}
node {
  name: "gradients/sparse_softmax_cross_entropy_loss/value_grad/div_no_nan_1"
  op: "DivNoNan"
  input: "gradients/sparse_softmax_cross_entropy_loss/value_grad/Neg"
  input: "sparse_softmax_cross_entropy_loss/num_present"
  device: "/replica:0/task:0/device:GPU:0"
  attr {
    key: "T"
    value {
      type: DT_FLOAT
    }
  }
  attr {
    key: "_output_shapes"
    value {
      list {
        shape {
        }
      }
    }
  }
}
node {
  name: "gradients/sparse_softmax_cross_entropy_loss/value_grad/div_no_nan_2"
  op: "DivNoNan"
  input: "gradients/sparse_softmax_cross_entropy_loss/value_grad/div_no_nan_1"
  input: "sparse_softmax_cross_entropy_loss/num_present"
  device: "/replica:0/task:0/device:GPU:0"
  attr {
    key: "T"
    value {
      type: DT_FLOAT
    }
  }
  attr {
    key: "_output_shapes"
    value {
      list {
        shape {
        }
      }
    }
  }
}
node {
  name: "gradients/sparse_softmax_cross_entropy_loss/value_grad/mul"
  op: "Mul"
  input: "gradients/Fill"
  input: "gradients/sparse_softmax_cross_entropy_loss/value_grad/div_no_nan_2"
  device: "/replica:0/task:0/device:GPU:0"
  attr {
    key: "T"
    value {
      type: DT_FLOAT
    }
  }
  attr {
    key: "_output_shapes"
    value {
      list {
        shape {
        }
      }
    }
  }
}
node {
  name: "gradients/sparse_softmax_cross_entropy_loss/value_grad/Sum_1"
  op: "Sum"
  input: "gradients/sparse_softmax_cross_entropy_loss/value_grad/mul"
  input: "gradients/sparse_softmax_cross_entropy_loss/value_grad/BroadcastGradientArgs:1"
  device: "/replica:0/task:0/device:GPU:0"
  attr {
    key: "T"
    value {
      type: DT_FLOAT
    }
  }
  attr {
    key: "Tidx"
    value {
      type: DT_INT32
    }
  }
  attr {
    key: "_output_shapes"
    value {
      list {
        shape {
        }
      }
    }
  }
  attr {
    key: "keep_dims"
    value {
      b: false
    }
  }
}
node {
  name: "gradients/sparse_softmax_cross_entropy_loss/value_grad/Reshape_1"
  op: "Reshape"
  input: "gradients/sparse_softmax_cross_entropy_loss/value_grad/Sum_1"
  input: "gradients/sparse_softmax_cross_entropy_loss/value_grad/Shape_1"
  device: "/replica:0/task:0/device:GPU:0"
  attr {
    key: "T"
    value {
      type: DT_FLOAT
    }
  }
  attr {
    key: "Tshape"
    value {
      type: DT_INT32
    }
  }
  attr {
    key: "_output_shapes"
    value {
      list {
        shape {
        }
      }
    }
  }
}
node {
  name: "gradients/sparse_softmax_cross_entropy_loss/value_grad/tuple/group_deps"
  op: "NoOp"
  input: "^gradients/sparse_softmax_cross_entropy_loss/value_grad/Reshape"
  input: "^gradients/sparse_softmax_cross_entropy_loss/value_grad/Reshape_1"
  device: "/replica:0/task:0/device:GPU:0"
}
node {
  name: "gradients/sparse_softmax_cross_entropy_loss/value_grad/tuple/control_dependency"
  op: "Identity"
  input: "gradients/sparse_softmax_cross_entropy_loss/value_grad/Reshape"
  input: "^gradients/sparse_softmax_cross_entropy_loss/value_grad/tuple/group_deps"
  device: "/replica:0/task:0/device:GPU:0"
  attr {
    key: "T"
    value {
      type: DT_FLOAT
    }
  }
  attr {
    key: "_class"
    value {
      list {
        s: "loc:@gradients/sparse_softmax_cross_entropy_loss/value_grad/Reshape"
      }
    }
  }
  attr {
    key: "_output_shapes"
    value {
      list {
        shape {
        }
      }
    }
  }
}
node {
  name: "gradients/sparse_softmax_cross_entropy_loss/value_grad/tuple/control_dependency_1"
  op: "Identity"
  input: "gradients/sparse_softmax_cross_entropy_loss/value_grad/Reshape_1"
  input: "^gradients/sparse_softmax_cross_entropy_loss/value_grad/tuple/group_deps"
  device: "/replica:0/task:0/device:GPU:0"
  attr {
    key: "T"
    value {
      type: DT_FLOAT
    }
  }
  attr {
    key: "_class"
    value {
      list {
        s: "loc:@gradients/sparse_softmax_cross_entropy_loss/value_grad/Reshape_1"
      }
    }
  }
  attr {
    key: "_output_shapes"
    value {
      list {
        shape {
        }
      }
    }
  }
}
node {
  name: "gradients/sparse_softmax_cross_entropy_loss/Sum_1_grad/Reshape/shape"
  op: "Const"
  device: "/replica:0/task:0/device:GPU:0"
  attr {
    key: "_output_shapes"
    value {
      list {
        shape {
          dim {
          }
        }
      }
    }
  }
  attr {
    key: "dtype"
    value {
      type: DT_INT32
    }
  }
  attr {
    key: "value"
    value {
      tensor {
        dtype: DT_INT32
        tensor_shape {
          dim {
          }
        }
      }
    }
  }
}
node {
  name: "gradients/sparse_softmax_cross_entropy_loss/Sum_1_grad/Reshape"
  op: "Reshape"
  input: "gradients/sparse_softmax_cross_entropy_loss/value_grad/tuple/control_dependency"
  input: "gradients/sparse_softmax_cross_entropy_loss/Sum_1_grad/Reshape/shape"
  device: "/replica:0/task:0/device:GPU:0"
  attr {
    key: "T"
    value {
      type: DT_FLOAT
    }
  }
  attr {
    key: "Tshape"
    value {
      type: DT_INT32
    }
  }
  attr {
    key: "_output_shapes"
    value {
      list {
        shape {
        }
      }
    }
  }
}
node {
  name: "gradients/sparse_softmax_cross_entropy_loss/Sum_1_grad/Const"
  op: "Const"
  device: "/replica:0/task:0/device:GPU:0"
  attr {
    key: "_output_shapes"
    value {
      list {
        shape {
          dim {
          }
        }
      }
    }
  }
  attr {
    key: "dtype"
    value {
      type: DT_INT32
    }
  }
  attr {
    key: "value"
    value {
      tensor {
        dtype: DT_INT32
        tensor_shape {
          dim {
          }
        }
      }
    }
  }
}
node {
  name: "gradients/sparse_softmax_cross_entropy_loss/Sum_1_grad/Tile"
  op: "Tile"
  input: "gradients/sparse_softmax_cross_entropy_loss/Sum_1_grad/Reshape"
  input: "gradients/sparse_softmax_cross_entropy_loss/Sum_1_grad/Const"
  device: "/replica:0/task:0/device:GPU:0"
  attr {
    key: "T"
    value {
      type: DT_FLOAT
    }
  }
  attr {
    key: "Tmultiples"
    value {
      type: DT_INT32
    }
  }
  attr {
    key: "_output_shapes"
    value {
      list {
        shape {
        }
      }
    }
  }
}
node {
  name: "gradients/sparse_softmax_cross_entropy_loss/Sum_grad/Reshape/shape"
  op: "Const"
  device: "/replica:0/task:0/device:GPU:0"
  attr {
    key: "_output_shapes"
    value {
      list {
        shape {
          dim {
            size: 1
          }
        }
      }
    }
  }
  attr {
    key: "dtype"
    value {
      type: DT_INT32
    }
  }
  attr {
    key: "value"
    value {
      tensor {
        dtype: DT_INT32
        tensor_shape {
          dim {
            size: 1
          }
        }
        int_val: 1
      }
    }
  }
}
node {
  name: "gradients/sparse_softmax_cross_entropy_loss/Sum_grad/Reshape"
  op: "Reshape"
  input: "gradients/sparse_softmax_cross_entropy_loss/Sum_1_grad/Tile"
  input: "gradients/sparse_softmax_cross_entropy_loss/Sum_grad/Reshape/shape"
  device: "/replica:0/task:0/device:GPU:0"
  attr {
    key: "T"
    value {
      type: DT_FLOAT
    }
  }
  attr {
    key: "Tshape"
    value {
      type: DT_INT32
    }
  }
  attr {
    key: "_output_shapes"
    value {
      list {
        shape {
          dim {
            size: 1
          }
        }
      }
    }
  }
}
node {
  name: "gradients/sparse_softmax_cross_entropy_loss/Sum_grad/Const"
  op: "Const"
  device: "/replica:0/task:0/device:GPU:0"
  attr {
    key: "_output_shapes"
    value {
      list {
        shape {
          dim {
            size: 1
          }
        }
      }
    }
  }
  attr {
    key: "dtype"
    value {
      type: DT_INT32
    }
  }
  attr {
    key: "value"
    value {
      tensor {
        dtype: DT_INT32
        tensor_shape {
          dim {
            size: 1
          }
        }
        int_val: 128
      }
    }
  }
}
node {
  name: "gradients/sparse_softmax_cross_entropy_loss/Sum_grad/Tile"
  op: "Tile"
  input: "gradients/sparse_softmax_cross_entropy_loss/Sum_grad/Reshape"
  input: "gradients/sparse_softmax_cross_entropy_loss/Sum_grad/Const"
  device: "/replica:0/task:0/device:GPU:0"
  attr {
    key: "T"
    value {
      type: DT_FLOAT
    }
  }
  attr {
    key: "Tmultiples"
    value {
      type: DT_INT32
    }
  }
  attr {
    key: "_output_shapes"
    value {
      list {
        shape {
          dim {
            size: 128
          }
        }
      }
    }
  }
}
node {
  name: "gradients/sparse_softmax_cross_entropy_loss/Mul_grad/BroadcastGradientArgs/s0"
  op: "Const"
  device: "/replica:0/task:0/device:GPU:0"
  attr {
    key: "_output_shapes"
    value {
      list {
        shape {
          dim {
            size: 1
          }
        }
      }
    }
  }
  attr {
    key: "dtype"
    value {
      type: DT_INT32
    }
  }
  attr {
    key: "value"
    value {
      tensor {
        dtype: DT_INT32
        tensor_shape {
          dim {
            size: 1
          }
        }
        int_val: 128
      }
    }
  }
}
node {
  name: "gradients/sparse_softmax_cross_entropy_loss/Mul_grad/BroadcastGradientArgs/s1"
  op: "Const"
  device: "/replica:0/task:0/device:GPU:0"
  attr {
    key: "_output_shapes"
    value {
      list {
        shape {
          dim {
          }
        }
      }
    }
  }
  attr {
    key: "dtype"
    value {
      type: DT_INT32
    }
  }
  attr {
    key: "value"
    value {
      tensor {
        dtype: DT_INT32
        tensor_shape {
          dim {
          }
        }
      }
    }
  }
}
node {
  name: "gradients/sparse_softmax_cross_entropy_loss/Mul_grad/BroadcastGradientArgs"
  op: "BroadcastGradientArgs"
  input: "gradients/sparse_softmax_cross_entropy_loss/Mul_grad/BroadcastGradientArgs/s0"
  input: "gradients/sparse_softmax_cross_entropy_loss/Mul_grad/BroadcastGradientArgs/s1"
  device: "/replica:0/task:0/device:GPU:0"
  attr {
    key: "T"
    value {
      type: DT_INT32
    }
  }
  attr {
    key: "_output_shapes"
    value {
      list {
        shape {
          dim {
            size: -1
          }
        }
        shape {
          dim {
            size: -1
          }
        }
      }
    }
  }
}
node {
  name: "gradients/sparse_softmax_cross_entropy_loss/Mul_grad/Mul"
  op: "Mul"
  input: "gradients/sparse_softmax_cross_entropy_loss/Sum_grad/Tile"
  input: "sparse_softmax_cross_entropy_loss/Const"
  device: "/replica:0/task:0/device:GPU:0"
  attr {
    key: "T"
    value {
      type: DT_FLOAT
    }
  }
  attr {
    key: "_output_shapes"
    value {
      list {
        shape {
          dim {
            size: 128
          }
        }
      }
    }
  }
}
node {
  name: "gradients/sparse_softmax_cross_entropy_loss/Mul_grad/Mul_1"
  op: "Mul"
  input: "sparse_softmax_cross_entropy_loss/xentropy/xentropy"
  input: "gradients/sparse_softmax_cross_entropy_loss/Sum_grad/Tile"
  device: "/replica:0/task:0/device:GPU:0"
  attr {
    key: "T"
    value {
      type: DT_FLOAT
    }
  }
  attr {
    key: "_output_shapes"
    value {
      list {
        shape {
          dim {
            size: 128
          }
        }
      }
    }
  }
}
node {
  name: "gradients/sparse_softmax_cross_entropy_loss/Mul_grad/Sum/reduction_indices"
  op: "Const"
  device: "/replica:0/task:0/device:GPU:0"
  attr {
    key: "_output_shapes"
    value {
      list {
        shape {
          dim {
            size: 1
          }
        }
      }
    }
  }
  attr {
    key: "dtype"
    value {
      type: DT_INT32
    }
  }
  attr {
    key: "value"
    value {
      tensor {
        dtype: DT_INT32
        tensor_shape {
          dim {
            size: 1
          }
        }
        int_val: 0
      }
    }
  }
}
node {
  name: "gradients/sparse_softmax_cross_entropy_loss/Mul_grad/Sum"
  op: "Sum"
  input: "gradients/sparse_softmax_cross_entropy_loss/Mul_grad/Mul_1"
  input: "gradients/sparse_softmax_cross_entropy_loss/Mul_grad/Sum/reduction_indices"
  device: "/replica:0/task:0/device:GPU:0"
  attr {
    key: "T"
    value {
      type: DT_FLOAT
    }
  }
  attr {
    key: "Tidx"
    value {
      type: DT_INT32
    }
  }
  attr {
    key: "_output_shapes"
    value {
      list {
        shape {
        }
      }
    }
  }
  attr {
    key: "keep_dims"
    value {
      b: false
    }
  }
}
node {
  name: "gradients/sparse_softmax_cross_entropy_loss/Mul_grad/Reshape/shape"
  op: "Const"
  device: "/replica:0/task:0/device:GPU:0"
  attr {
    key: "_output_shapes"
    value {
      list {
        shape {
          dim {
          }
        }
      }
    }
  }
  attr {
    key: "dtype"
    value {
      type: DT_INT32
    }
  }
  attr {
    key: "value"
    value {
      tensor {
        dtype: DT_INT32
        tensor_shape {
          dim {
          }
        }
      }
    }
  }
}
node {
  name: "gradients/sparse_softmax_cross_entropy_loss/Mul_grad/Reshape"
  op: "Reshape"
  input: "gradients/sparse_softmax_cross_entropy_loss/Mul_grad/Sum"
  input: "gradients/sparse_softmax_cross_entropy_loss/Mul_grad/Reshape/shape"
  device: "/replica:0/task:0/device:GPU:0"
  attr {
    key: "T"
    value {
      type: DT_FLOAT
    }
  }
  attr {
    key: "Tshape"
    value {
      type: DT_INT32
    }
  }
  attr {
    key: "_output_shapes"
    value {
      list {
        shape {
        }
      }
    }
  }
}
node {
  name: "gradients/sparse_softmax_cross_entropy_loss/Mul_grad/tuple/group_deps"
  op: "NoOp"
  input: "^gradients/sparse_softmax_cross_entropy_loss/Mul_grad/Mul"
  input: "^gradients/sparse_softmax_cross_entropy_loss/Mul_grad/Reshape"
  device: "/replica:0/task:0/device:GPU:0"
}
node {
  name: "gradients/sparse_softmax_cross_entropy_loss/Mul_grad/tuple/control_dependency"
  op: "Identity"
  input: "gradients/sparse_softmax_cross_entropy_loss/Mul_grad/Mul"
  input: "^gradients/sparse_softmax_cross_entropy_loss/Mul_grad/tuple/group_deps"
  device: "/replica:0/task:0/device:GPU:0"
  attr {
    key: "T"
    value {
      type: DT_FLOAT
    }
  }
  attr {
    key: "_class"
    value {
      list {
        s: "loc:@gradients/sparse_softmax_cross_entropy_loss/Mul_grad/Mul"
      }
    }
  }
  attr {
    key: "_output_shapes"
    value {
      list {
        shape {
          dim {
            size: 128
          }
        }
      }
    }
  }
}
node {
  name: "gradients/sparse_softmax_cross_entropy_loss/Mul_grad/tuple/control_dependency_1"
  op: "Identity"
  input: "gradients/sparse_softmax_cross_entropy_loss/Mul_grad/Reshape"
  input: "^gradients/sparse_softmax_cross_entropy_loss/Mul_grad/tuple/group_deps"
  device: "/replica:0/task:0/device:GPU:0"
  attr {
    key: "T"
    value {
      type: DT_FLOAT
    }
  }
  attr {
    key: "_class"
    value {
      list {
        s: "loc:@gradients/sparse_softmax_cross_entropy_loss/Mul_grad/Reshape"
      }
    }
  }
  attr {
    key: "_output_shapes"
    value {
      list {
        shape {
        }
      }
    }
  }
}
node {
  name: "gradients/zeros_like"
  op: "ZerosLike"
  input: "sparse_softmax_cross_entropy_loss/xentropy/xentropy:1"
  device: "/replica:0/task:0/device:GPU:0"
  attr {
    key: "T"
    value {
      type: DT_FLOAT
    }
  }
  attr {
    key: "_output_shapes"
    value {
      list {
        shape {
          dim {
            size: 128
          }
          dim {
            size: 6
          }
        }
      }
    }
  }
}
node {
  name: "gradients/sparse_softmax_cross_entropy_loss/xentropy/xentropy_grad/PreventGradient"
  op: "PreventGradient"
  input: "sparse_softmax_cross_entropy_loss/xentropy/xentropy:1"
  device: "/replica:0/task:0/device:GPU:0"
  attr {
    key: "T"
    value {
      type: DT_FLOAT
    }
  }
  attr {
    key: "_output_shapes"
    value {
      list {
        shape {
          dim {
            size: 128
          }
          dim {
            size: 6
          }
        }
      }
    }
  }
  attr {
    key: "message"
    value {
      s: "Currently there is no way to take the second derivative of sparse_softmax_cross_entropy_with_logits due to the fused implementation\'s interaction with tf.gradients()"
    }
  }
}
node {
  name: "gradients/sparse_softmax_cross_entropy_loss/xentropy/xentropy_grad/ExpandDims/dim"
  op: "Const"
  device: "/replica:0/task:0/device:GPU:0"
  attr {
    key: "_output_shapes"
    value {
      list {
        shape {
        }
      }
    }
  }
  attr {
    key: "dtype"
    value {
      type: DT_INT32
    }
  }
  attr {
    key: "value"
    value {
      tensor {
        dtype: DT_INT32
        tensor_shape {
        }
        int_val: -1
      }
    }
  }
}
node {
  name: "gradients/sparse_softmax_cross_entropy_loss/xentropy/xentropy_grad/ExpandDims"
  op: "ExpandDims"
  input: "gradients/sparse_softmax_cross_entropy_loss/Mul_grad/tuple/control_dependency"
  input: "gradients/sparse_softmax_cross_entropy_loss/xentropy/xentropy_grad/ExpandDims/dim"
  device: "/replica:0/task:0/device:GPU:0"
  attr {
    key: "T"
    value {
      type: DT_FLOAT
    }
  }
  attr {
    key: "Tdim"
    value {
      type: DT_INT32
    }
  }
  attr {
    key: "_output_shapes"
    value {
      list {
        shape {
          dim {
            size: 128
          }
          dim {
            size: 1
          }
        }
      }
    }
  }
}
node {
  name: "gradients/sparse_softmax_cross_entropy_loss/xentropy/xentropy_grad/mul"
  op: "Mul"
  input: "gradients/sparse_softmax_cross_entropy_loss/xentropy/xentropy_grad/ExpandDims"
  input: "gradients/sparse_softmax_cross_entropy_loss/xentropy/xentropy_grad/PreventGradient"
  device: "/replica:0/task:0/device:GPU:0"
  attr {
    key: "T"
    value {
      type: DT_FLOAT
    }
  }
  attr {
    key: "_output_shapes"
    value {
      list {
        shape {
          dim {
            size: 128
          }
          dim {
            size: 6
          }
        }
      }
    }
  }
}
node {
  name: "gradients/dense_1/BiasAdd_grad/BiasAddGrad"
  op: "BiasAddGrad"
  input: "gradients/sparse_softmax_cross_entropy_loss/xentropy/xentropy_grad/mul"
  device: "/replica:0/task:0/device:GPU:0"
  attr {
    key: "T"
    value {
      type: DT_FLOAT
    }
  }
  attr {
    key: "_output_shapes"
    value {
      list {
        shape {
          dim {
            size: 6
          }
        }
      }
    }
  }
  attr {
    key: "data_format"
    value {
      s: "NHWC"
    }
  }
}
node {
  name: "gradients/dense_1/BiasAdd_grad/tuple/group_deps"
  op: "NoOp"
  input: "^gradients/dense_1/BiasAdd_grad/BiasAddGrad"
  input: "^gradients/sparse_softmax_cross_entropy_loss/xentropy/xentropy_grad/mul"
  device: "/replica:0/task:0/device:GPU:0"
}
node {
  name: "gradients/dense_1/BiasAdd_grad/tuple/control_dependency"
  op: "Identity"
  input: "gradients/sparse_softmax_cross_entropy_loss/xentropy/xentropy_grad/mul"
  input: "^gradients/dense_1/BiasAdd_grad/tuple/group_deps"
  device: "/replica:0/task:0/device:GPU:0"
  attr {
    key: "T"
    value {
      type: DT_FLOAT
    }
  }
  attr {
    key: "_class"
    value {
      list {
        s: "loc:@gradients/sparse_softmax_cross_entropy_loss/xentropy/xentropy_grad/mul"
      }
    }
  }
  attr {
    key: "_output_shapes"
    value {
      list {
        shape {
          dim {
            size: 128
          }
          dim {
            size: 6
          }
        }
      }
    }
  }
}
node {
  name: "gradients/dense_1/BiasAdd_grad/tuple/control_dependency_1"
  op: "Identity"
  input: "gradients/dense_1/BiasAdd_grad/BiasAddGrad"
  input: "^gradients/dense_1/BiasAdd_grad/tuple/group_deps"
  device: "/replica:0/task:0/device:GPU:0"
  attr {
    key: "T"
    value {
      type: DT_FLOAT
    }
  }
  attr {
    key: "_class"
    value {
      list {
        s: "loc:@gradients/dense_1/BiasAdd_grad/BiasAddGrad"
      }
    }
  }
  attr {
    key: "_output_shapes"
    value {
      list {
        shape {
          dim {
            size: 6
          }
        }
      }
    }
  }
}
node {
  name: "gradients/dense_1/MatMul_grad/MatMul"
  op: "MatMul"
  input: "gradients/dense_1/BiasAdd_grad/tuple/control_dependency"
  input: "dense_1/MatMul/ReadVariableOp"
  device: "/replica:0/task:0/device:GPU:0"
  attr {
    key: "T"
    value {
      type: DT_FLOAT
    }
  }
  attr {
    key: "_output_shapes"
    value {
      list {
        shape {
          dim {
            size: 128
          }
          dim {
            size: 256
          }
        }
      }
    }
  }
  attr {
    key: "transpose_a"
    value {
      b: false
    }
  }
  attr {
    key: "transpose_b"
    value {
      b: true
    }
  }
}
node {
  name: "gradients/dense_1/MatMul_grad/MatMul_1"
  op: "MatMul"
  input: "dense/Relu"
  input: "gradients/dense_1/BiasAdd_grad/tuple/control_dependency"
  device: "/replica:0/task:0/device:GPU:0"
  attr {
    key: "T"
    value {
      type: DT_FLOAT
    }
  }
  attr {
    key: "_output_shapes"
    value {
      list {
        shape {
          dim {
            size: 256
          }
          dim {
            size: 6
          }
        }
      }
    }
  }
  attr {
    key: "transpose_a"
    value {
      b: true
    }
  }
  attr {
    key: "transpose_b"
    value {
      b: false
    }
  }
}
node {
  name: "gradients/dense_1/MatMul_grad/tuple/group_deps"
  op: "NoOp"
  input: "^gradients/dense_1/MatMul_grad/MatMul"
  input: "^gradients/dense_1/MatMul_grad/MatMul_1"
  device: "/replica:0/task:0/device:GPU:0"
}
node {
  name: "gradients/dense_1/MatMul_grad/tuple/control_dependency"
  op: "Identity"
  input: "gradients/dense_1/MatMul_grad/MatMul"
  input: "^gradients/dense_1/MatMul_grad/tuple/group_deps"
  device: "/replica:0/task:0/device:GPU:0"
  attr {
    key: "T"
    value {
      type: DT_FLOAT
    }
  }
  attr {
    key: "_class"
    value {
      list {
        s: "loc:@gradients/dense_1/MatMul_grad/MatMul"
      }
    }
  }
  attr {
    key: "_output_shapes"
    value {
      list {
        shape {
          dim {
            size: 128
          }
          dim {
            size: 256
          }
        }
      }
    }
  }
}
node {
  name: "gradients/dense_1/MatMul_grad/tuple/control_dependency_1"
  op: "Identity"
  input: "gradients/dense_1/MatMul_grad/MatMul_1"
  input: "^gradients/dense_1/MatMul_grad/tuple/group_deps"
  device: "/replica:0/task:0/device:GPU:0"
  attr {
    key: "T"
    value {
      type: DT_FLOAT
    }
  }
  attr {
    key: "_class"
    value {
      list {
        s: "loc:@gradients/dense_1/MatMul_grad/MatMul_1"
      }
    }
  }
  attr {
    key: "_output_shapes"
    value {
      list {
        shape {
          dim {
            size: 256
          }
          dim {
            size: 6
          }
        }
      }
    }
  }
}
node {
  name: "gradients/dense/Relu_grad/ReluGrad"
  op: "ReluGrad"
  input: "gradients/dense_1/MatMul_grad/tuple/control_dependency"
  input: "dense/Relu"
  device: "/replica:0/task:0/device:GPU:0"
  attr {
    key: "T"
    value {
      type: DT_FLOAT
    }
  }
  attr {
    key: "_output_shapes"
    value {
      list {
        shape {
          dim {
            size: 128
          }
          dim {
            size: 256
          }
        }
      }
    }
  }
}
node {
  name: "gradients/dense/BiasAdd_grad/BiasAddGrad"
  op: "BiasAddGrad"
  input: "gradients/dense/Relu_grad/ReluGrad"
  device: "/replica:0/task:0/device:GPU:0"
  attr {
    key: "T"
    value {
      type: DT_FLOAT
    }
  }
  attr {
    key: "_output_shapes"
    value {
      list {
        shape {
          dim {
            size: 256
          }
        }
      }
    }
  }
  attr {
    key: "data_format"
    value {
      s: "NHWC"
    }
  }
}
node {
  name: "gradients/dense/BiasAdd_grad/tuple/group_deps"
  op: "NoOp"
  input: "^gradients/dense/BiasAdd_grad/BiasAddGrad"
  input: "^gradients/dense/Relu_grad/ReluGrad"
  device: "/replica:0/task:0/device:GPU:0"
}
node {
  name: "gradients/dense/BiasAdd_grad/tuple/control_dependency"
  op: "Identity"
  input: "gradients/dense/Relu_grad/ReluGrad"
  input: "^gradients/dense/BiasAdd_grad/tuple/group_deps"
  device: "/replica:0/task:0/device:GPU:0"
  attr {
    key: "T"
    value {
      type: DT_FLOAT
    }
  }
  attr {
    key: "_class"
    value {
      list {
        s: "loc:@gradients/dense/Relu_grad/ReluGrad"
      }
    }
  }
  attr {
    key: "_output_shapes"
    value {
      list {
        shape {
          dim {
            size: 128
          }
          dim {
            size: 256
          }
        }
      }
    }
  }
}
node {
  name: "gradients/dense/BiasAdd_grad/tuple/control_dependency_1"
  op: "Identity"
  input: "gradients/dense/BiasAdd_grad/BiasAddGrad"
  input: "^gradients/dense/BiasAdd_grad/tuple/group_deps"
  device: "/replica:0/task:0/device:GPU:0"
  attr {
    key: "T"
    value {
      type: DT_FLOAT
    }
  }
  attr {
    key: "_class"
    value {
      list {
        s: "loc:@gradients/dense/BiasAdd_grad/BiasAddGrad"
      }
    }
  }
  attr {
    key: "_output_shapes"
    value {
      list {
        shape {
          dim {
            size: 256
          }
        }
      }
    }
  }
}
node {
  name: "gradients/dense/MatMul_grad/MatMul"
  op: "MatMul"
  input: "gradients/dense/BiasAdd_grad/tuple/control_dependency"
  input: "dense/MatMul/ReadVariableOp"
  device: "/replica:0/task:0/device:GPU:0"
  attr {
    key: "T"
    value {
      type: DT_FLOAT
    }
  }
  attr {
    key: "_output_shapes"
    value {
      list {
        shape {
          dim {
            size: 128
          }
          dim {
            size: 14400
          }
        }
      }
    }
  }
  attr {
    key: "transpose_a"
    value {
      b: false
    }
  }
  attr {
    key: "transpose_b"
    value {
      b: true
    }
  }
}
node {
  name: "gradients/dense/MatMul_grad/MatMul_1"
  op: "MatMul"
  input: "Reshape_1"
  input: "gradients/dense/BiasAdd_grad/tuple/control_dependency"
  device: "/replica:0/task:0/device:GPU:0"
  attr {
    key: "T"
    value {
      type: DT_FLOAT
    }
  }
  attr {
    key: "_output_shapes"
    value {
      list {
        shape {
          dim {
            size: 14400
          }
          dim {
            size: 256
          }
        }
      }
    }
  }
  attr {
    key: "transpose_a"
    value {
      b: true
    }
  }
  attr {
    key: "transpose_b"
    value {
      b: false
    }
  }
}
node {
  name: "gradients/dense/MatMul_grad/tuple/group_deps"
  op: "NoOp"
  input: "^gradients/dense/MatMul_grad/MatMul"
  input: "^gradients/dense/MatMul_grad/MatMul_1"
  device: "/replica:0/task:0/device:GPU:0"
}
node {
  name: "gradients/dense/MatMul_grad/tuple/control_dependency"
  op: "Identity"
  input: "gradients/dense/MatMul_grad/MatMul"
  input: "^gradients/dense/MatMul_grad/tuple/group_deps"
  device: "/replica:0/task:0/device:GPU:0"
  attr {
    key: "T"
    value {
      type: DT_FLOAT
    }
  }
  attr {
    key: "_class"
    value {
      list {
        s: "loc:@gradients/dense/MatMul_grad/MatMul"
      }
    }
  }
  attr {
    key: "_output_shapes"
    value {
      list {
        shape {
          dim {
            size: 128
          }
          dim {
            size: 14400
          }
        }
      }
    }
  }
}
node {
  name: "gradients/dense/MatMul_grad/tuple/control_dependency_1"
  op: "Identity"
  input: "gradients/dense/MatMul_grad/MatMul_1"
  input: "^gradients/dense/MatMul_grad/tuple/group_deps"
  device: "/replica:0/task:0/device:GPU:0"
  attr {
    key: "T"
    value {
      type: DT_FLOAT
    }
  }
  attr {
    key: "_class"
    value {
      list {
        s: "loc:@gradients/dense/MatMul_grad/MatMul_1"
      }
    }
  }
  attr {
    key: "_output_shapes"
    value {
      list {
        shape {
          dim {
            size: 14400
          }
          dim {
            size: 256
          }
        }
      }
    }
  }
}
node {
  name: "gradients/Reshape_1_grad/Shape"
  op: "Const"
  device: "/replica:0/task:0/device:GPU:0"
  attr {
    key: "_output_shapes"
    value {
      list {
        shape {
          dim {
            size: 4
          }
        }
      }
    }
  }
  attr {
    key: "dtype"
    value {
      type: DT_INT32
    }
  }
  attr {
    key: "value"
    value {
      tensor {
        dtype: DT_INT32
        tensor_shape {
          dim {
            size: 4
          }
        }
        tensor_content: "\200\000\000\000\017\000\000\000\017\000\000\000@\000\000\000"
      }
    }
  }
}
node {
  name: "gradients/Reshape_1_grad/Reshape"
  op: "Reshape"
  input: "gradients/dense/MatMul_grad/tuple/control_dependency"
  input: "gradients/Reshape_1_grad/Shape"
  device: "/replica:0/task:0/device:GPU:0"
  attr {
    key: "T"
    value {
      type: DT_FLOAT
    }
  }
  attr {
    key: "Tshape"
    value {
      type: DT_INT32
    }
  }
  attr {
    key: "_output_shapes"
    value {
      list {
        shape {
          dim {
            size: 128
          }
          dim {
            size: 15
          }
          dim {
            size: 15
          }
          dim {
            size: 64
          }
        }
      }
    }
  }
}
node {
  name: "gradients/max_pooling2d_1/MaxPool_grad/MaxPoolGrad"
  op: "MaxPoolGrad"
  input: "conv2d_1/Relu"
  input: "max_pooling2d_1/MaxPool"
  input: "gradients/Reshape_1_grad/Reshape"
  device: "/replica:0/task:0/device:GPU:0"
  attr {
    key: "T"
    value {
      type: DT_FLOAT
    }
  }
  attr {
    key: "_output_shapes"
    value {
      list {
        shape {
          dim {
            size: 128
          }
          dim {
            size: 30
          }
          dim {
            size: 30
          }
          dim {
            size: 64
          }
        }
      }
    }
  }
  attr {
    key: "data_format"
    value {
      s: "NHWC"
    }
  }
  attr {
    key: "ksize"
    value {
      list {
        i: 1
        i: 2
        i: 2
        i: 1
      }
    }
  }
  attr {
    key: "padding"
    value {
      s: "VALID"
    }
  }
  attr {
    key: "strides"
    value {
      list {
        i: 1
        i: 2
        i: 2
        i: 1
      }
    }
  }
}
node {
  name: "gradients/conv2d_1/Relu_grad/ReluGrad"
  op: "ReluGrad"
  input: "gradients/max_pooling2d_1/MaxPool_grad/MaxPoolGrad"
  input: "conv2d_1/Relu"
  device: "/replica:0/task:0/device:GPU:0"
  attr {
    key: "T"
    value {
      type: DT_FLOAT
    }
  }
  attr {
    key: "_output_shapes"
    value {
      list {
        shape {
          dim {
            size: 128
          }
          dim {
            size: 30
          }
          dim {
            size: 30
          }
          dim {
            size: 64
          }
        }
      }
    }
  }
}
node {
  name: "gradients/conv2d_1/BiasAdd_grad/BiasAddGrad"
  op: "BiasAddGrad"
  input: "gradients/conv2d_1/Relu_grad/ReluGrad"
  device: "/replica:0/task:0/device:GPU:0"
  attr {
    key: "T"
    value {
      type: DT_FLOAT
    }
  }
  attr {
    key: "_output_shapes"
    value {
      list {
        shape {
          dim {
            size: 64
          }
        }
      }
    }
  }
  attr {
    key: "data_format"
    value {
      s: "NHWC"
    }
  }
}
node {
  name: "gradients/conv2d_1/BiasAdd_grad/tuple/group_deps"
  op: "NoOp"
  input: "^gradients/conv2d_1/BiasAdd_grad/BiasAddGrad"
  input: "^gradients/conv2d_1/Relu_grad/ReluGrad"
  device: "/replica:0/task:0/device:GPU:0"
}
node {
  name: "gradients/conv2d_1/BiasAdd_grad/tuple/control_dependency"
  op: "Identity"
  input: "gradients/conv2d_1/Relu_grad/ReluGrad"
  input: "^gradients/conv2d_1/BiasAdd_grad/tuple/group_deps"
  device: "/replica:0/task:0/device:GPU:0"
  attr {
    key: "T"
    value {
      type: DT_FLOAT
    }
  }
  attr {
    key: "_class"
    value {
      list {
        s: "loc:@gradients/conv2d_1/Relu_grad/ReluGrad"
      }
    }
  }
  attr {
    key: "_output_shapes"
    value {
      list {
        shape {
          dim {
            size: 128
          }
          dim {
            size: 30
          }
          dim {
            size: 30
          }
          dim {
            size: 64
          }
        }
      }
    }
  }
}
node {
  name: "gradients/conv2d_1/BiasAdd_grad/tuple/control_dependency_1"
  op: "Identity"
  input: "gradients/conv2d_1/BiasAdd_grad/BiasAddGrad"
  input: "^gradients/conv2d_1/BiasAdd_grad/tuple/group_deps"
  device: "/replica:0/task:0/device:GPU:0"
  attr {
    key: "T"
    value {
      type: DT_FLOAT
    }
  }
  attr {
    key: "_class"
    value {
      list {
        s: "loc:@gradients/conv2d_1/BiasAdd_grad/BiasAddGrad"
      }
    }
  }
  attr {
    key: "_output_shapes"
    value {
      list {
        shape {
          dim {
            size: 64
          }
        }
      }
    }
  }
}
node {
  name: "gradients/conv2d_1/Conv2D_grad/ShapeN"
  op: "ShapeN"
  input: "norm1"
  input: "conv2d_1/Conv2D/ReadVariableOp"
  device: "/replica:0/task:0/device:GPU:0"
  attr {
    key: "N"
    value {
      i: 2
    }
  }
  attr {
    key: "T"
    value {
      type: DT_FLOAT
    }
  }
  attr {
    key: "_output_shapes"
    value {
      list {
        shape {
          dim {
            size: 4
          }
        }
        shape {
          dim {
            size: 4
          }
        }
      }
    }
  }
  attr {
    key: "out_type"
    value {
      type: DT_INT32
    }
  }
}
node {
  name: "gradients/conv2d_1/Conv2D_grad/Conv2DBackpropInput"
  op: "Conv2DBackpropInput"
  input: "gradients/conv2d_1/Conv2D_grad/ShapeN"
  input: "conv2d_1/Conv2D/ReadVariableOp"
  input: "gradients/conv2d_1/BiasAdd_grad/tuple/control_dependency"
  device: "/replica:0/task:0/device:GPU:0"
  attr {
    key: "T"
    value {
      type: DT_FLOAT
    }
  }
  attr {
    key: "_output_shapes"
    value {
      list {
        shape {
          dim {
            size: 128
          }
          dim {
            size: 32
          }
          dim {
            size: 32
          }
          dim {
            size: 32
          }
        }
      }
    }
  }
  attr {
    key: "data_format"
    value {
      s: "NHWC"
    }
  }
  attr {
    key: "dilations"
    value {
      list {
        i: 1
        i: 1
        i: 1
        i: 1
      }
    }
  }
  attr {
    key: "explicit_paddings"
    value {
      list {
      }
    }
  }
  attr {
    key: "padding"
    value {
      s: "VALID"
    }
  }
  attr {
    key: "strides"
    value {
      list {
        i: 1
        i: 1
        i: 1
        i: 1
      }
    }
  }
  attr {
    key: "use_cudnn_on_gpu"
    value {
      b: true
    }
  }
}
node {
  name: "gradients/conv2d_1/Conv2D_grad/Conv2DBackpropFilter"
  op: "Conv2DBackpropFilter"
  input: "norm1"
  input: "gradients/conv2d_1/Conv2D_grad/ShapeN:1"
  input: "gradients/conv2d_1/BiasAdd_grad/tuple/control_dependency"
  device: "/replica:0/task:0/device:GPU:0"
  attr {
    key: "T"
    value {
      type: DT_FLOAT
    }
  }
  attr {
    key: "_output_shapes"
    value {
      list {
        shape {
          dim {
            size: 3
          }
          dim {
            size: 3
          }
          dim {
            size: 32
          }
          dim {
            size: 64
          }
        }
      }
    }
  }
  attr {
    key: "data_format"
    value {
      s: "NHWC"
    }
  }
  attr {
    key: "dilations"
    value {
      list {
        i: 1
        i: 1
        i: 1
        i: 1
      }
    }
  }
  attr {
    key: "explicit_paddings"
    value {
      list {
      }
    }
  }
  attr {
    key: "padding"
    value {
      s: "VALID"
    }
  }
  attr {
    key: "strides"
    value {
      list {
        i: 1
        i: 1
        i: 1
        i: 1
      }
    }
  }
  attr {
    key: "use_cudnn_on_gpu"
    value {
      b: true
    }
  }
}
node {
  name: "gradients/conv2d_1/Conv2D_grad/tuple/group_deps"
  op: "NoOp"
  input: "^gradients/conv2d_1/Conv2D_grad/Conv2DBackpropFilter"
  input: "^gradients/conv2d_1/Conv2D_grad/Conv2DBackpropInput"
  device: "/replica:0/task:0/device:GPU:0"
}
node {
  name: "gradients/conv2d_1/Conv2D_grad/tuple/control_dependency"
  op: "Identity"
  input: "gradients/conv2d_1/Conv2D_grad/Conv2DBackpropInput"
  input: "^gradients/conv2d_1/Conv2D_grad/tuple/group_deps"
  device: "/replica:0/task:0/device:GPU:0"
  attr {
    key: "T"
    value {
      type: DT_FLOAT
    }
  }
  attr {
    key: "_class"
    value {
      list {
        s: "loc:@gradients/conv2d_1/Conv2D_grad/Conv2DBackpropInput"
      }
    }
  }
  attr {
    key: "_output_shapes"
    value {
      list {
        shape {
          dim {
            size: 128
          }
          dim {
            size: 32
          }
          dim {
            size: 32
          }
          dim {
            size: 32
          }
        }
      }
    }
  }
}
node {
  name: "gradients/conv2d_1/Conv2D_grad/tuple/control_dependency_1"
  op: "Identity"
  input: "gradients/conv2d_1/Conv2D_grad/Conv2DBackpropFilter"
  input: "^gradients/conv2d_1/Conv2D_grad/tuple/group_deps"
  device: "/replica:0/task:0/device:GPU:0"
  attr {
    key: "T"
    value {
      type: DT_FLOAT
    }
  }
  attr {
    key: "_class"
    value {
      list {
        s: "loc:@gradients/conv2d_1/Conv2D_grad/Conv2DBackpropFilter"
      }
    }
  }
  attr {
    key: "_output_shapes"
    value {
      list {
        shape {
          dim {
            size: 3
          }
          dim {
            size: 3
          }
          dim {
            size: 32
          }
          dim {
            size: 64
          }
        }
      }
    }
  }
}
node {
  name: "gradients/norm1_grad/LRNGrad"
  op: "LRNGrad"
  input: "gradients/conv2d_1/Conv2D_grad/tuple/control_dependency"
  input: "max_pooling2d/MaxPool"
  input: "norm1"
  device: "/replica:0/task:0/device:GPU:0"
  attr {
    key: "T"
    value {
      type: DT_FLOAT
    }
  }
  attr {
    key: "_output_shapes"
    value {
      list {
        shape {
          dim {
            size: 128
          }
          dim {
            size: 32
          }
          dim {
            size: 32
          }
          dim {
            size: 32
          }
        }
      }
    }
  }
  attr {
    key: "alpha"
    value {
      f: 0.00033333332976326346
    }
  }
  attr {
    key: "beta"
    value {
      f: 0.75
    }
  }
  attr {
    key: "bias"
    value {
      f: 1.0
    }
  }
  attr {
    key: "depth_radius"
    value {
      i: 4
    }
  }
}
node {
  name: "gradients/max_pooling2d/MaxPool_grad/MaxPoolGrad"
  op: "MaxPoolGrad"
  input: "conv2d/Relu"
  input: "max_pooling2d/MaxPool"
  input: "gradients/norm1_grad/LRNGrad"
  device: "/replica:0/task:0/device:GPU:0"
  attr {
    key: "T"
    value {
      type: DT_FLOAT
    }
  }
  attr {
    key: "_output_shapes"
    value {
      list {
        shape {
          dim {
            size: 128
          }
          dim {
            size: 64
          }
          dim {
            size: 64
          }
          dim {
            size: 32
          }
        }
      }
    }
  }
  attr {
    key: "data_format"
    value {
      s: "NHWC"
    }
  }
  attr {
    key: "ksize"
    value {
      list {
        i: 1
        i: 2
        i: 2
        i: 1
      }
    }
  }
  attr {
    key: "padding"
    value {
      s: "VALID"
    }
  }
  attr {
    key: "strides"
    value {
      list {
        i: 1
        i: 2
        i: 2
        i: 1
      }
    }
  }
}
node {
  name: "gradients/conv2d/Relu_grad/ReluGrad"
  op: "ReluGrad"
  input: "gradients/max_pooling2d/MaxPool_grad/MaxPoolGrad"
  input: "conv2d/Relu"
  device: "/replica:0/task:0/device:GPU:0"
  attr {
    key: "T"
    value {
      type: DT_FLOAT
    }
  }
  attr {
    key: "_output_shapes"
    value {
      list {
        shape {
          dim {
            size: 128
          }
          dim {
            size: 64
          }
          dim {
            size: 64
          }
          dim {
            size: 32
          }
        }
      }
    }
  }
}
node {
  name: "gradients/conv2d/BiasAdd_grad/BiasAddGrad"
  op: "BiasAddGrad"
  input: "gradients/conv2d/Relu_grad/ReluGrad"
  device: "/replica:0/task:0/device:GPU:0"
  attr {
    key: "T"
    value {
      type: DT_FLOAT
    }
  }
  attr {
    key: "_output_shapes"
    value {
      list {
        shape {
          dim {
            size: 32
          }
        }
      }
    }
  }
  attr {
    key: "data_format"
    value {
      s: "NHWC"
    }
  }
}
node {
  name: "gradients/conv2d/BiasAdd_grad/tuple/group_deps"
  op: "NoOp"
  input: "^gradients/conv2d/BiasAdd_grad/BiasAddGrad"
  input: "^gradients/conv2d/Relu_grad/ReluGrad"
  device: "/replica:0/task:0/device:GPU:0"
}
node {
  name: "gradients/conv2d/BiasAdd_grad/tuple/control_dependency"
  op: "Identity"
  input: "gradients/conv2d/Relu_grad/ReluGrad"
  input: "^gradients/conv2d/BiasAdd_grad/tuple/group_deps"
  device: "/replica:0/task:0/device:GPU:0"
  attr {
    key: "T"
    value {
      type: DT_FLOAT
    }
  }
  attr {
    key: "_class"
    value {
      list {
        s: "loc:@gradients/conv2d/Relu_grad/ReluGrad"
      }
    }
  }
  attr {
    key: "_output_shapes"
    value {
      list {
        shape {
          dim {
            size: 128
          }
          dim {
            size: 64
          }
          dim {
            size: 64
          }
          dim {
            size: 32
          }
        }
      }
    }
  }
}
node {
  name: "gradients/conv2d/BiasAdd_grad/tuple/control_dependency_1"
  op: "Identity"
  input: "gradients/conv2d/BiasAdd_grad/BiasAddGrad"
  input: "^gradients/conv2d/BiasAdd_grad/tuple/group_deps"
  device: "/replica:0/task:0/device:GPU:0"
  attr {
    key: "T"
    value {
      type: DT_FLOAT
    }
  }
  attr {
    key: "_class"
    value {
      list {
        s: "loc:@gradients/conv2d/BiasAdd_grad/BiasAddGrad"
      }
    }
  }
  attr {
    key: "_output_shapes"
    value {
      list {
        shape {
          dim {
            size: 32
          }
        }
      }
    }
  }
}
node {
  name: "gradients/conv2d/Conv2D_grad/ShapeN"
  op: "ShapeN"
  input: "Reshape"
  input: "conv2d/Conv2D/ReadVariableOp"
  device: "/replica:0/task:0/device:GPU:0"
  attr {
    key: "N"
    value {
      i: 2
    }
  }
  attr {
    key: "T"
    value {
      type: DT_FLOAT
    }
  }
  attr {
    key: "_output_shapes"
    value {
      list {
        shape {
          dim {
            size: 4
          }
        }
        shape {
          dim {
            size: 4
          }
        }
      }
    }
  }
  attr {
    key: "out_type"
    value {
      type: DT_INT32
    }
  }
}
node {
  name: "gradients/conv2d/Conv2D_grad/Conv2DBackpropInput"
  op: "Conv2DBackpropInput"
  input: "gradients/conv2d/Conv2D_grad/ShapeN"
  input: "conv2d/Conv2D/ReadVariableOp"
  input: "gradients/conv2d/BiasAdd_grad/tuple/control_dependency"
  device: "/replica:0/task:0/device:GPU:0"
  attr {
    key: "T"
    value {
      type: DT_FLOAT
    }
  }
  attr {
    key: "_output_shapes"
    value {
      list {
        shape {
          dim {
            size: 128
          }
          dim {
            size: 64
          }
          dim {
            size: 64
          }
          dim {
            size: 3
          }
        }
      }
    }
  }
  attr {
    key: "data_format"
    value {
      s: "NHWC"
    }
  }
  attr {
    key: "dilations"
    value {
      list {
        i: 1
        i: 1
        i: 1
        i: 1
      }
    }
  }
  attr {
    key: "explicit_paddings"
    value {
      list {
      }
    }
  }
  attr {
    key: "padding"
    value {
      s: "SAME"
    }
  }
  attr {
    key: "strides"
    value {
      list {
        i: 1
        i: 1
        i: 1
        i: 1
      }
    }
  }
  attr {
    key: "use_cudnn_on_gpu"
    value {
      b: true
    }
  }
}
node {
  name: "gradients/conv2d/Conv2D_grad/Conv2DBackpropFilter"
  op: "Conv2DBackpropFilter"
  input: "Reshape"
  input: "gradients/conv2d/Conv2D_grad/ShapeN:1"
  input: "gradients/conv2d/BiasAdd_grad/tuple/control_dependency"
  device: "/replica:0/task:0/device:GPU:0"
  attr {
    key: "T"
    value {
      type: DT_FLOAT
    }
  }
  attr {
    key: "_output_shapes"
    value {
      list {
        shape {
          dim {
            size: 3
          }
          dim {
            size: 3
          }
          dim {
            size: 3
          }
          dim {
            size: 32
          }
        }
      }
    }
  }
  attr {
    key: "data_format"
    value {
      s: "NHWC"
    }
  }
  attr {
    key: "dilations"
    value {
      list {
        i: 1
        i: 1
        i: 1
        i: 1
      }
    }
  }
  attr {
    key: "explicit_paddings"
    value {
      list {
      }
    }
  }
  attr {
    key: "padding"
    value {
      s: "SAME"
    }
  }
  attr {
    key: "strides"
    value {
      list {
        i: 1
        i: 1
        i: 1
        i: 1
      }
    }
  }
  attr {
    key: "use_cudnn_on_gpu"
    value {
      b: true
    }
  }
}
node {
  name: "gradients/conv2d/Conv2D_grad/tuple/group_deps"
  op: "NoOp"
  input: "^gradients/conv2d/Conv2D_grad/Conv2DBackpropFilter"
  input: "^gradients/conv2d/Conv2D_grad/Conv2DBackpropInput"
  device: "/replica:0/task:0/device:GPU:0"
}
node {
  name: "gradients/conv2d/Conv2D_grad/tuple/control_dependency"
  op: "Identity"
  input: "gradients/conv2d/Conv2D_grad/Conv2DBackpropInput"
  input: "^gradients/conv2d/Conv2D_grad/tuple/group_deps"
  device: "/replica:0/task:0/device:GPU:0"
  attr {
    key: "T"
    value {
      type: DT_FLOAT
    }
  }
  attr {
    key: "_class"
    value {
      list {
        s: "loc:@gradients/conv2d/Conv2D_grad/Conv2DBackpropInput"
      }
    }
  }
  attr {
    key: "_output_shapes"
    value {
      list {
        shape {
          dim {
            size: 128
          }
          dim {
            size: 64
          }
          dim {
            size: 64
          }
          dim {
            size: 3
          }
        }
      }
    }
  }
}
node {
  name: "gradients/conv2d/Conv2D_grad/tuple/control_dependency_1"
  op: "Identity"
  input: "gradients/conv2d/Conv2D_grad/Conv2DBackpropFilter"
  input: "^gradients/conv2d/Conv2D_grad/tuple/group_deps"
  device: "/replica:0/task:0/device:GPU:0"
  attr {
    key: "T"
    value {
      type: DT_FLOAT
    }
  }
  attr {
    key: "_class"
    value {
      list {
        s: "loc:@gradients/conv2d/Conv2D_grad/Conv2DBackpropFilter"
      }
    }
  }
  attr {
    key: "_output_shapes"
    value {
      list {
        shape {
          dim {
            size: 3
          }
          dim {
            size: 3
          }
          dim {
            size: 3
          }
          dim {
            size: 32
          }
        }
      }
    }
  }
}
node {
  name: "GradientDescent/learning_rate"
  op: "Const"
  attr {
    key: "_output_shapes"
    value {
      list {
        shape {
        }
      }
    }
  }
  attr {
    key: "dtype"
    value {
      type: DT_FLOAT
    }
  }
  attr {
    key: "value"
    value {
      tensor {
        dtype: DT_FLOAT
        tensor_shape {
        }
        float_val: 0.009999999776482582
      }
    }
  }
}
node {
  name: "GradientDescent/update_0/update_conv2d/kernel/ResourceApplyGradientDescent"
  op: "ResourceApplyGradientDescent"
  input: "conv2d/kernel"
  input: "GradientDescent/learning_rate"
  input: "gradients/conv2d/Conv2D_grad/tuple/control_dependency_1"
  device: "/replica:0/task:0/device:GPU:0"
  attr {
    key: "T"
    value {
      type: DT_FLOAT
    }
  }
  attr {
    key: "use_locking"
    value {
      b: false
    }
  }
}
node {
  name: "GradientDescent/update_0_1/update_conv2d/bias/ResourceApplyGradientDescent"
  op: "ResourceApplyGradientDescent"
  input: "conv2d/bias"
  input: "GradientDescent/learning_rate"
  input: "gradients/conv2d/BiasAdd_grad/tuple/control_dependency_1"
  device: "/replica:0/task:0/device:GPU:0"
  attr {
    key: "T"
    value {
      type: DT_FLOAT
    }
  }
  attr {
    key: "use_locking"
    value {
      b: false
    }
  }
}
node {
  name: "GradientDescent/update_0_2/update_conv2d_1/kernel/ResourceApplyGradientDescent"
  op: "ResourceApplyGradientDescent"
  input: "conv2d_1/kernel"
  input: "GradientDescent/learning_rate"
  input: "gradients/conv2d_1/Conv2D_grad/tuple/control_dependency_1"
  device: "/replica:0/task:0/device:GPU:0"
  attr {
    key: "T"
    value {
      type: DT_FLOAT
    }
  }
  attr {
    key: "use_locking"
    value {
      b: false
    }
  }
}
node {
  name: "GradientDescent/update_0_3/update_conv2d_1/bias/ResourceApplyGradientDescent"
  op: "ResourceApplyGradientDescent"
  input: "conv2d_1/bias"
  input: "GradientDescent/learning_rate"
  input: "gradients/conv2d_1/BiasAdd_grad/tuple/control_dependency_1"
  device: "/replica:0/task:0/device:GPU:0"
  attr {
    key: "T"
    value {
      type: DT_FLOAT
    }
  }
  attr {
    key: "use_locking"
    value {
      b: false
    }
  }
}
node {
  name: "GradientDescent/update_0_4/update_dense/kernel/ResourceApplyGradientDescent"
  op: "ResourceApplyGradientDescent"
  input: "dense/kernel"
  input: "GradientDescent/learning_rate"
  input: "gradients/dense/MatMul_grad/tuple/control_dependency_1"
  device: "/replica:0/task:0/device:GPU:0"
  attr {
    key: "T"
    value {
      type: DT_FLOAT
    }
  }
  attr {
    key: "use_locking"
    value {
      b: false
    }
  }
}
node {
  name: "GradientDescent/update_0_5/update_dense/bias/ResourceApplyGradientDescent"
  op: "ResourceApplyGradientDescent"
  input: "dense/bias"
  input: "GradientDescent/learning_rate"
  input: "gradients/dense/BiasAdd_grad/tuple/control_dependency_1"
  device: "/replica:0/task:0/device:GPU:0"
  attr {
    key: "T"
    value {
      type: DT_FLOAT
    }
  }
  attr {
    key: "use_locking"
    value {
      b: false
    }
  }
}
node {
  name: "GradientDescent/update_0_6/update_dense_1/kernel/ResourceApplyGradientDescent"
  op: "ResourceApplyGradientDescent"
  input: "dense_1/kernel"
  input: "GradientDescent/learning_rate"
  input: "gradients/dense_1/MatMul_grad/tuple/control_dependency_1"
  device: "/replica:0/task:0/device:GPU:0"
  attr {
    key: "T"
    value {
      type: DT_FLOAT
    }
  }
  attr {
    key: "use_locking"
    value {
      b: false
    }
  }
}
node {
  name: "GradientDescent/update_0_7/update_dense_1/bias/ResourceApplyGradientDescent"
  op: "ResourceApplyGradientDescent"
  input: "dense_1/bias"
  input: "GradientDescent/learning_rate"
  input: "gradients/dense_1/BiasAdd_grad/tuple/control_dependency_1"
  device: "/replica:0/task:0/device:GPU:0"
  attr {
    key: "T"
    value {
      type: DT_FLOAT
    }
  }
  attr {
    key: "use_locking"
    value {
      b: false
    }
  }
}
node {
  name: "GradientDescent/update_0_8/update"
  op: "NoOp"
  input: "^GradientDescent/update_0/update_conv2d/kernel/ResourceApplyGradientDescent"
  input: "^GradientDescent/update_0_1/update_conv2d/bias/ResourceApplyGradientDescent"
  input: "^GradientDescent/update_0_2/update_conv2d_1/kernel/ResourceApplyGradientDescent"
  input: "^GradientDescent/update_0_3/update_conv2d_1/bias/ResourceApplyGradientDescent"
  input: "^GradientDescent/update_0_4/update_dense/kernel/ResourceApplyGradientDescent"
  input: "^GradientDescent/update_0_5/update_dense/bias/ResourceApplyGradientDescent"
  input: "^GradientDescent/update_0_6/update_dense_1/kernel/ResourceApplyGradientDescent"
  input: "^GradientDescent/update_0_7/update_dense_1/bias/ResourceApplyGradientDescent"
  device: "/replica:0/task:0/device:GPU:0"
}
node {
  name: "GradientDescent/update_0_9/Const"
  op: "Const"
  input: "^GradientDescent/update_0_8/update"
  device: "/replica:0/task:0/device:GPU:0"
  attr {
    key: "_output_shapes"
    value {
      list {
        shape {
        }
      }
    }
  }
  attr {
    key: "dtype"
    value {
      type: DT_INT64
    }
  }
  attr {
    key: "value"
    value {
      tensor {
        dtype: DT_INT64
        tensor_shape {
        }
        int64_val: 1
      }
    }
  }
}
node {
  name: "GradientDescent/update_0_9/AssignAddVariableOp"
  op: "AssignAddVariableOp"
  input: "global_step"
  input: "GradientDescent/update_0_9/Const"
  device: "/replica:0/task:0/device:GPU:0"
  attr {
    key: "dtype"
    value {
      type: DT_INT64
    }
  }
}
node {
  name: "GradientDescent/update_0_9/ReadVariableOp"
  op: "ReadVariableOp"
  input: "global_step"
  input: "^GradientDescent/update_0_8/update"
  input: "^GradientDescent/update_0_9/AssignAddVariableOp"
  device: "/replica:0/task:0/device:GPU:0"
  attr {
    key: "_output_shapes"
    value {
      list {
        shape {
        }
      }
    }
  }
  attr {
    key: "dtype"
    value {
      type: DT_INT64
    }
  }
}
node {
  name: "Identity_2"
  op: "Identity"
  input: "sparse_softmax_cross_entropy_loss/value"
  device: "/replica:0/task:0/device:CPU:0"
  attr {
    key: "T"
    value {
      type: DT_FLOAT
    }
  }
  attr {
    key: "_output_shapes"
    value {
      list {
        shape {
        }
      }
    }
  }
}
node {
  name: "Const_1"
  op: "Const"
  attr {
    key: "_output_shapes"
    value {
      list {
        shape {
        }
      }
    }
  }
  attr {
    key: "dtype"
    value {
      type: DT_INT32
    }
  }
  attr {
    key: "value"
    value {
      tensor {
        dtype: DT_INT32
        tensor_shape {
        }
        int_val: 0
      }
    }
  }
}
node {
  name: "Const_2"
  op: "Const"
  attr {
    key: "_output_shapes"
    value {
      list {
        shape {
        }
      }
    }
  }
  attr {
    key: "dtype"
    value {
      type: DT_INT32
    }
  }
  attr {
    key: "value"
    value {
      tensor {
        dtype: DT_INT32
        tensor_shape {
        }
        int_val: 0
      }
    }
  }
}
node {
  name: "report_uninitialized_variables/VarIsInitializedOp"
  op: "VarIsInitializedOp"
  input: "global_step"
  device: "/replica:0/task:0/device:GPU:0"
  attr {
    key: "_output_shapes"
    value {
      list {
        shape {
        }
      }
    }
  }
}
node {
  name: "report_uninitialized_variables/VarIsInitializedOp_1"
  op: "VarIsInitializedOp"
  input: "global_step"
  device: "/replica:0/task:0/device:GPU:0"
  attr {
    key: "_output_shapes"
    value {
      list {
        shape {
        }
      }
    }
  }
}
node {
  name: "report_uninitialized_variables/LogicalAnd"
  op: "LogicalAnd"
  input: "report_uninitialized_variables/VarIsInitializedOp"
  input: "report_uninitialized_variables/VarIsInitializedOp_1"
  device: "/replica:0/task:0/device:GPU:0"
  attr {
    key: "_output_shapes"
    value {
      list {
        shape {
        }
      }
    }
  }
}
node {
  name: "report_uninitialized_variables/VarIsInitializedOp_2"
  op: "VarIsInitializedOp"
  input: "conv2d/kernel"
  device: "/replica:0/task:0/device:GPU:0"
  attr {
    key: "_output_shapes"
    value {
      list {
        shape {
        }
      }
    }
  }
}
node {
  name: "report_uninitialized_variables/VarIsInitializedOp_3"
  op: "VarIsInitializedOp"
  input: "conv2d/kernel"
  device: "/replica:0/task:0/device:GPU:0"
  attr {
    key: "_output_shapes"
    value {
      list {
        shape {
        }
      }
    }
  }
}
node {
  name: "report_uninitialized_variables/LogicalAnd_1"
  op: "LogicalAnd"
  input: "report_uninitialized_variables/VarIsInitializedOp_2"
  input: "report_uninitialized_variables/VarIsInitializedOp_3"
  device: "/replica:0/task:0/device:GPU:0"
  attr {
    key: "_output_shapes"
    value {
      list {
        shape {
        }
      }
    }
  }
}
node {
  name: "report_uninitialized_variables/VarIsInitializedOp_4"
  op: "VarIsInitializedOp"
  input: "conv2d/bias"
  device: "/replica:0/task:0/device:GPU:0"
  attr {
    key: "_output_shapes"
    value {
      list {
        shape {
        }
      }
    }
  }
}
node {
  name: "report_uninitialized_variables/VarIsInitializedOp_5"
  op: "VarIsInitializedOp"
  input: "conv2d/bias"
  device: "/replica:0/task:0/device:GPU:0"
  attr {
    key: "_output_shapes"
    value {
      list {
        shape {
        }
      }
    }
  }
}
node {
  name: "report_uninitialized_variables/LogicalAnd_2"
  op: "LogicalAnd"
  input: "report_uninitialized_variables/VarIsInitializedOp_4"
  input: "report_uninitialized_variables/VarIsInitializedOp_5"
  device: "/replica:0/task:0/device:GPU:0"
  attr {
    key: "_output_shapes"
    value {
      list {
        shape {
        }
      }
    }
  }
}
node {
  name: "report_uninitialized_variables/VarIsInitializedOp_6"
  op: "VarIsInitializedOp"
  input: "conv2d_1/kernel"
  device: "/replica:0/task:0/device:GPU:0"
  attr {
    key: "_output_shapes"
    value {
      list {
        shape {
        }
      }
    }
  }
}
node {
  name: "report_uninitialized_variables/VarIsInitializedOp_7"
  op: "VarIsInitializedOp"
  input: "conv2d_1/kernel"
  device: "/replica:0/task:0/device:GPU:0"
  attr {
    key: "_output_shapes"
    value {
      list {
        shape {
        }
      }
    }
  }
}
node {
  name: "report_uninitialized_variables/LogicalAnd_3"
  op: "LogicalAnd"
  input: "report_uninitialized_variables/VarIsInitializedOp_6"
  input: "report_uninitialized_variables/VarIsInitializedOp_7"
  device: "/replica:0/task:0/device:GPU:0"
  attr {
    key: "_output_shapes"
    value {
      list {
        shape {
        }
      }
    }
  }
}
node {
  name: "report_uninitialized_variables/VarIsInitializedOp_8"
  op: "VarIsInitializedOp"
  input: "conv2d_1/bias"
  device: "/replica:0/task:0/device:GPU:0"
  attr {
    key: "_output_shapes"
    value {
      list {
        shape {
        }
      }
    }
  }
}
node {
  name: "report_uninitialized_variables/VarIsInitializedOp_9"
  op: "VarIsInitializedOp"
  input: "conv2d_1/bias"
  device: "/replica:0/task:0/device:GPU:0"
  attr {
    key: "_output_shapes"
    value {
      list {
        shape {
        }
      }
    }
  }
}
node {
  name: "report_uninitialized_variables/LogicalAnd_4"
  op: "LogicalAnd"
  input: "report_uninitialized_variables/VarIsInitializedOp_8"
  input: "report_uninitialized_variables/VarIsInitializedOp_9"
  device: "/replica:0/task:0/device:GPU:0"
  attr {
    key: "_output_shapes"
    value {
      list {
        shape {
        }
      }
    }
  }
}
node {
  name: "report_uninitialized_variables/VarIsInitializedOp_10"
  op: "VarIsInitializedOp"
  input: "dense/kernel"
  device: "/replica:0/task:0/device:GPU:0"
  attr {
    key: "_output_shapes"
    value {
      list {
        shape {
        }
      }
    }
  }
}
node {
  name: "report_uninitialized_variables/VarIsInitializedOp_11"
  op: "VarIsInitializedOp"
  input: "dense/kernel"
  device: "/replica:0/task:0/device:GPU:0"
  attr {
    key: "_output_shapes"
    value {
      list {
        shape {
        }
      }
    }
  }
}
node {
  name: "report_uninitialized_variables/LogicalAnd_5"
  op: "LogicalAnd"
  input: "report_uninitialized_variables/VarIsInitializedOp_10"
  input: "report_uninitialized_variables/VarIsInitializedOp_11"
  device: "/replica:0/task:0/device:GPU:0"
  attr {
    key: "_output_shapes"
    value {
      list {
        shape {
        }
      }
    }
  }
}
node {
  name: "report_uninitialized_variables/VarIsInitializedOp_12"
  op: "VarIsInitializedOp"
  input: "dense/bias"
  device: "/replica:0/task:0/device:GPU:0"
  attr {
    key: "_output_shapes"
    value {
      list {
        shape {
        }
      }
    }
  }
}
node {
  name: "report_uninitialized_variables/VarIsInitializedOp_13"
  op: "VarIsInitializedOp"
  input: "dense/bias"
  device: "/replica:0/task:0/device:GPU:0"
  attr {
    key: "_output_shapes"
    value {
      list {
        shape {
        }
      }
    }
  }
}
node {
  name: "report_uninitialized_variables/LogicalAnd_6"
  op: "LogicalAnd"
  input: "report_uninitialized_variables/VarIsInitializedOp_12"
  input: "report_uninitialized_variables/VarIsInitializedOp_13"
  device: "/replica:0/task:0/device:GPU:0"
  attr {
    key: "_output_shapes"
    value {
      list {
        shape {
        }
      }
    }
  }
}
node {
  name: "report_uninitialized_variables/VarIsInitializedOp_14"
  op: "VarIsInitializedOp"
  input: "dense_1/kernel"
  device: "/replica:0/task:0/device:GPU:0"
  attr {
    key: "_output_shapes"
    value {
      list {
        shape {
        }
      }
    }
  }
}
node {
  name: "report_uninitialized_variables/VarIsInitializedOp_15"
  op: "VarIsInitializedOp"
  input: "dense_1/kernel"
  device: "/replica:0/task:0/device:GPU:0"
  attr {
    key: "_output_shapes"
    value {
      list {
        shape {
        }
      }
    }
  }
}
node {
  name: "report_uninitialized_variables/LogicalAnd_7"
  op: "LogicalAnd"
  input: "report_uninitialized_variables/VarIsInitializedOp_14"
  input: "report_uninitialized_variables/VarIsInitializedOp_15"
  device: "/replica:0/task:0/device:GPU:0"
  attr {
    key: "_output_shapes"
    value {
      list {
        shape {
        }
      }
    }
  }
}
node {
  name: "report_uninitialized_variables/VarIsInitializedOp_16"
  op: "VarIsInitializedOp"
  input: "dense_1/bias"
  device: "/replica:0/task:0/device:GPU:0"
  attr {
    key: "_output_shapes"
    value {
      list {
        shape {
        }
      }
    }
  }
}
node {
  name: "report_uninitialized_variables/VarIsInitializedOp_17"
  op: "VarIsInitializedOp"
  input: "dense_1/bias"
  device: "/replica:0/task:0/device:GPU:0"
  attr {
    key: "_output_shapes"
    value {
      list {
        shape {
        }
      }
    }
  }
}
node {
  name: "report_uninitialized_variables/LogicalAnd_8"
  op: "LogicalAnd"
  input: "report_uninitialized_variables/VarIsInitializedOp_16"
  input: "report_uninitialized_variables/VarIsInitializedOp_17"
  device: "/replica:0/task:0/device:GPU:0"
  attr {
    key: "_output_shapes"
    value {
      list {
        shape {
        }
      }
    }
  }
}
node {
  name: "report_uninitialized_variables/stack"
  op: "Pack"
  input: "report_uninitialized_variables/LogicalAnd"
  input: "report_uninitialized_variables/LogicalAnd_1"
  input: "report_uninitialized_variables/LogicalAnd_2"
  input: "report_uninitialized_variables/LogicalAnd_3"
  input: "report_uninitialized_variables/LogicalAnd_4"
  input: "report_uninitialized_variables/LogicalAnd_5"
  input: "report_uninitialized_variables/LogicalAnd_6"
  input: "report_uninitialized_variables/LogicalAnd_7"
  input: "report_uninitialized_variables/LogicalAnd_8"
  device: "/replica:0/task:0/device:CPU:0"
  attr {
    key: "N"
    value {
      i: 9
    }
  }
  attr {
    key: "T"
    value {
      type: DT_BOOL
    }
  }
  attr {
    key: "_output_shapes"
    value {
      list {
        shape {
          dim {
            size: 9
          }
        }
      }
    }
  }
  attr {
    key: "axis"
    value {
      i: 0
    }
  }
}
node {
  name: "report_uninitialized_variables/LogicalNot"
  op: "LogicalNot"
  input: "report_uninitialized_variables/stack"
  device: "/replica:0/task:0/device:CPU:0"
  attr {
    key: "_output_shapes"
    value {
      list {
        shape {
          dim {
            size: 9
          }
        }
…
      }
    }
  }
}
node {
  name: "report_uninitialized_variables_1/boolean_mask/strided_slice_1/stack_2"
  op: "Const"
  device: "/device:CPU:0"
  attr {
    key: "_output_shapes"
    value {
      list {
        shape {
          dim {
            size: 1
          }
        }
      }
    }
  }
  attr {
    key: "dtype"
    value {
      type: DT_INT32
    }
  }
  attr {
    key: "value"
    value {
      tensor {
        dtype: DT_INT32
        tensor_shape {
          dim {
            size: 1
          }
        }
        int_val: 1
      }
    }
  }
}
node {
  name: "report_uninitialized_variables_1/boolean_mask/strided_slice_1"
  op: "StridedSlice"
  input: "report_uninitialized_variables_1/boolean_mask/Shape_1"
  input: "report_uninitialized_variables_1/boolean_mask/strided_slice_1/stack"
  input: "report_uninitialized_variables_1/boolean_mask/strided_slice_1/stack_1"
  input: "report_uninitialized_variables_1/boolean_mask/strided_slice_1/stack_2"
  device: "/device:CPU:0"
  attr {
    key: "Index"
    value {
      type: DT_INT32
    }
  }
  attr {
    key: "T"
    value {
      type: DT_INT32
    }
  }
  attr {
    key: "_output_shapes"
    value {
      list {
        shape {
          dim {
          }
        }
      }
    }
  }
  attr {
    key: "begin_mask"
    value {
      i: 1
    }
  }
  attr {
    key: "ellipsis_mask"
    value {
      i: 0
    }
  }
  attr {
    key: "end_mask"
    value {
      i: 0
    }
  }
  attr {
    key: "new_axis_mask"
    value {
      i: 0
    }
  }
  attr {
    key: "shrink_axis_mask"
    value {
      i: 0
    }
  }
}
node {
  name: "report_uninitialized_variables_1/boolean_mask/Shape_2"
  op: "Const"
  device: "/device:CPU:0"
  attr {
    key: "_output_shapes"
    value {
      list {
        shape {
          dim {
            size: 1
          }
        }
      }
    }
  }
  attr {
    key: "dtype"
    value {
      type: DT_INT32
    }
  }
  attr {
    key: "value"
    value {
      tensor {
        dtype: DT_INT32
        tensor_shape {
          dim {
            size: 1
          }
        }
        int_val: 9
      }
    }
  }
}
node {
  name: "report_uninitialized_variables_1/boolean_mask/strided_slice_2/stack"
  op: "Const"
  device: "/device:CPU:0"
  attr {
    key: "_output_shapes"
    value {
      list {
        shape {
          dim {
            size: 1
          }
        }
      }
    }
  }
  attr {
    key: "dtype"
    value {
      type: DT_INT32
    }
  }
  attr {
    key: "value"
    value {
      tensor {
        dtype: DT_INT32
        tensor_shape {
          dim {
            size: 1
          }
        }
        int_val: 1
      }
    }
  }
}
node {
  name: "report_uninitialized_variables_1/boolean_mask/strided_slice_2/stack_1"
  op: "Const"
  device: "/device:CPU:0"
  attr {
    key: "_output_shapes"
    value {
      list {
        shape {
          dim {
            size: 1
          }
        }
      }
    }
  }
  attr {
    key: "dtype"
    value {
      type: DT_INT32
    }
  }
  attr {
    key: "value"
    value {
      tensor {
        dtype: DT_INT32
        tensor_shape {
          dim {
            size: 1
          }
        }
        int_val: 0
      }
    }
  }
}
node {
  name: "report_uninitialized_variables_1/boolean_mask/strided_slice_2/stack_2"
  op: "Const"
  device: "/device:CPU:0"
  attr {
    key: "_output_shapes"
    value {
      list {
        shape {
          dim {
            size: 1
          }
        }
      }
    }
  }
  attr {
    key: "dtype"
    value {
      type: DT_INT32
    }
  }
  attr {
    key: "value"
    value {
      tensor {
        dtype: DT_INT32
        tensor_shape {
          dim {
            size: 1
          }
        }
        int_val: 1
      }
    }
  }
}
node {
  name: "report_uninitialized_variables_1/boolean_mask/strided_slice_2"
  op: "StridedSlice"
  input: "report_uninitialized_variables_1/boolean_mask/Shape_2"
  input: "report_uninitialized_variables_1/boolean_mask/strided_slice_2/stack"
  input: "report_uninitialized_variables_1/boolean_mask/strided_slice_2/stack_1"
  input: "report_uninitialized_variables_1/boolean_mask/strided_slice_2/stack_2"
  device: "/device:CPU:0"
  attr {
    key: "Index"
    value {
      type: DT_INT32
    }
  }
  attr {
    key: "T"
    value {
      type: DT_INT32
    }
  }
  attr {
    key: "_output_shapes"
    value {
      list {
        shape {
          dim {
          }
        }
      }
    }
  }
  attr {
    key: "begin_mask"
    value {
      i: 0
    }
  }
  attr {
    key: "ellipsis_mask"
    value {
      i: 0
    }
  }
  attr {
    key: "end_mask"
    value {
      i: 1
    }
  }
  attr {
    key: "new_axis_mask"
    value {
      i: 0
    }
  }
  attr {
    key: "shrink_axis_mask"
    value {
      i: 0
    }
  }
}
node {
  name: "report_uninitialized_variables_1/boolean_mask/concat/values_1"
  op: "Pack"
  input: "report_uninitialized_variables_1/boolean_mask/Prod"
  device: "/device:CPU:0"
  attr {
    key: "N"
    value {
      i: 1
    }
  }
  attr {
    key: "T"
    value {
      type: DT_INT32
    }
  }
  attr {
    key: "_output_shapes"
    value {
      list {
        shape {
          dim {
            size: 1
          }
        }
      }
    }
  }
  attr {
    key: "axis"
    value {
      i: 0
    }
  }
}
node {
  name: "report_uninitialized_variables_1/boolean_mask/concat/axis"
  op: "Const"
  device: "/device:CPU:0"
  attr {
    key: "_output_shapes"
    value {
      list {
        shape {
        }
      }
    }
  }
  attr {
    key: "dtype"
    value {
      type: DT_INT32
    }
  }
  attr {
    key: "value"
    value {
      tensor {
        dtype: DT_INT32
        tensor_shape {
        }
        int_val: 0
      }
    }
  }
}
node {
  name: "report_uninitialized_variables_1/boolean_mask/concat"
  op: "ConcatV2"
  input: "report_uninitialized_variables_1/boolean_mask/strided_slice_1"
  input: "report_uninitialized_variables_1/boolean_mask/concat/values_1"
  input: "report_uninitialized_variables_1/boolean_mask/strided_slice_2"
  input: "report_uninitialized_variables_1/boolean_mask/concat/axis"
  device: "/device:CPU:0"
  attr {
    key: "N"
    value {
      i: 3
    }
  }
  attr {
    key: "T"
    value {
      type: DT_INT32
    }
  }
  attr {
    key: "Tidx"
    value {
      type: DT_INT32
    }
  }
  attr {
    key: "_output_shapes"
    value {
      list {
        shape {
          dim {
            size: 1
          }
        }
      }
    }
  }
}
node {
  name: "report_uninitialized_variables_1/boolean_mask/Reshape"
  op: "Reshape"
  input: "report_uninitialized_variables_1/Const"
  input: "report_uninitialized_variables_1/boolean_mask/concat"
  device: "/device:CPU:0"
  attr {
    key: "T"
    value {
      type: DT_STRING
    }
  }
  attr {
    key: "Tshape"
    value {
      type: DT_INT32
    }
  }
  attr {
    key: "_output_shapes"
    value {
      list {
        shape {
          dim {
            size: 9
          }
        }
      }
    }
  }
}
node {
  name: "report_uninitialized_variables_1/boolean_mask/Reshape_1/shape"
  op: "Const"
  device: "/device:CPU:0"
  attr {
    key: "_output_shapes"
    value {
      list {
        shape {
          dim {
            size: 1
          }
        }
      }
    }
  }
  attr {
    key: "dtype"
    value {
      type: DT_INT32
    }
  }
  attr {
    key: "value"
    value {
      tensor {
        dtype: DT_INT32
        tensor_shape {
          dim {
            size: 1
          }
        }
        int_val: -1
      }
    }
  }
}
node {
  name: "report_uninitialized_variables_1/boolean_mask/Reshape_1"
  op: "Reshape"
  input: "report_uninitialized_variables_1/LogicalNot"
  input: "report_uninitialized_variables_1/boolean_mask/Reshape_1/shape"
  device: "/device:CPU:0"
  attr {
    key: "T"
    value {
      type: DT_BOOL
    }
  }
  attr {
    key: "Tshape"
    value {
      type: DT_INT32
    }
  }
  attr {
    key: "_output_shapes"
    value {
      list {
        shape {
          dim {
            size: 9
          }
        }
      }
    }
  }
}
node {
  name: "report_uninitialized_variables_1/boolean_mask/Where"
  op: "Where"
  input: "report_uninitialized_variables_1/boolean_mask/Reshape_1"
  device: "/device:CPU:0"
  attr {
    key: "T"
    value {
      type: DT_BOOL
    }
  }
  attr {
    key: "_output_shapes"
    value {
      list {
        shape {
          dim {
            size: -1
          }
          dim {
            size: 1
          }
        }
      }
    }
  }
}
node {
  name: "report_uninitialized_variables_1/boolean_mask/Squeeze"
  op: "Squeeze"
  input: "report_uninitialized_variables_1/boolean_mask/Where"
  device: "/device:CPU:0"
  attr {
    key: "T"
    value {
      type: DT_INT64
    }
  }
  attr {
    key: "_output_shapes"
    value {
      list {
        shape {
          dim {
            size: -1
          }
        }
      }
    }
  }
  attr {
    key: "squeeze_dims"
    value {
      list {
        i: 1
      }
    }
  }
}
node {
  name: "report_uninitialized_variables_1/boolean_mask/GatherV2/axis"
  op: "Const"
  device: "/device:CPU:0"
  attr {
    key: "_output_shapes"
    value {
      list {
        shape {
        }
      }
    }
  }
  attr {
    key: "dtype"
    value {
      type: DT_INT32
    }
  }
  attr {
    key: "value"
    value {
      tensor {
        dtype: DT_INT32
        tensor_shape {
        }
        int_val: 0
      }
    }
  }
}
node {
  name: "report_uninitialized_variables_1/boolean_mask/GatherV2"
  op: "GatherV2"
  input: "report_uninitialized_variables_1/boolean_mask/Reshape"
  input: "report_uninitialized_variables_1/boolean_mask/Squeeze"
  input: "report_uninitialized_variables_1/boolean_mask/GatherV2/axis"
  device: "/device:CPU:0"
  attr {
    key: "Taxis"
    value {
      type: DT_INT32
    }
  }
  attr {
    key: "Tindices"
    value {
      type: DT_INT64
    }
  }
  attr {
    key: "Tparams"
    value {
      type: DT_STRING
    }
  }
  attr {
    key: "_output_shapes"
    value {
      list {
        shape {
          dim {
            size: -1
          }
        }
      }
    }
  }
  attr {
    key: "batch_dims"
    value {
      i: 0
    }
  }
}
node {
  name: "report_uninitialized_resources/Const"
  op: "Const"
  device: "/device:CPU:0"
  attr {
    key: "_output_shapes"
    value {
      list {
        shape {
          dim {
          }
        }
      }
    }
  }
  attr {
    key: "dtype"
    value {
      type: DT_STRING
    }
  }
  attr {
    key: "value"
    value {
      tensor {
        dtype: DT_STRING
        tensor_shape {
          dim {
          }
        }
      }
    }
  }
}
node {
  name: "concat/axis"
  op: "Const"
  attr {
    key: "_output_shapes"
    value {
      list {
        shape {
        }
      }
    }
  }
  attr {
    key: "dtype"
    value {
      type: DT_INT32
    }
  }
  attr {
    key: "value"
    value {
      tensor {
        dtype: DT_INT32
        tensor_shape {
        }
        int_val: 0
      }
    }
  }
}
node {
  name: "concat"
  op: "ConcatV2"
  input: "report_uninitialized_variables_1/boolean_mask/GatherV2"
  input: "report_uninitialized_resources/Const"
  input: "concat/axis"
  attr {
    key: "N"
    value {
      i: 2
    }
  }
  attr {
    key: "T"
    value {
      type: DT_STRING
    }
  }
  attr {
    key: "Tidx"
    value {
      type: DT_INT32
    }
  }
  attr {
    key: "_output_shapes"
    value {
      list {
        shape {
          dim {
            size: -1
          }
        }
      }
    }
  }
}
node {
  name: "init_2"
  op: "NoOp"
}
node {
  name: "init_all_tables"
  op: "NoOp"
}
node {
  name: "init_3"
  op: "NoOp"
}
node {
  name: "group_deps_11"
  op: "NoOp"
  input: "^init_2"
  input: "^init_3"
  input: "^init_all_tables"
}
node {
  name: "Merge/MergeSummary"
  op: "MergeSummary"
  input: "enqueue_input/queue/enqueue_input/random_shuffle_queuefraction_over_250_of_750_full"
  input: "loss"
  attr {
    key: "N"
    value {
      i: 2
    }
  }
  attr {
    key: "_output_shapes"
    value {
      list {
        shape {
        }
      }
    }
  }
}
node {
  name: "save/filename/input"
  op: "Const"
  attr {
    key: "_output_shapes"
    value {
      list {
        shape {
        }
      }
    }
  }
  attr {
    key: "dtype"
    value {
      type: DT_STRING
    }
  }
  attr {
    key: "value"
    value {
      tensor {
        dtype: DT_STRING
        tensor_shape {
        }
        string_val: "model"
      }
    }
  }
}
node {
  name: "save/filename"
  op: "PlaceholderWithDefault"
  input: "save/filename/input"
  attr {
    key: "_output_shapes"
    value {
      list {
        shape {
        }
      }
    }
  }
  attr {
    key: "dtype"
    value {
      type: DT_STRING
    }
  }
  attr {
    key: "shape"
    value {
      shape {
      }
    }
  }
}
node {
  name: "save/Const"
  op: "PlaceholderWithDefault"
  input: "save/filename"
  attr {
    key: "_output_shapes"
    value {
      list {
        shape {
        }
      }
    }
  }
  attr {
    key: "dtype"
    value {
      type: DT_STRING
    }
  }
  attr {
    key: "shape"
    value {
      shape {
      }
    }
  }
}
node {
  name: "save/Read/ReadVariableOp"
  op: "ReadVariableOp"
  input: "conv2d/bias"
  device: "/replica:0/task:0/device:GPU:0"
  attr {
    key: "_output_shapes"
    value {
      list {
        shape {
          dim {
            size: 32
          }
        }
      }
    }
  }
  attr {
    key: "dtype"
    value {
      type: DT_FLOAT
    }
  }
}
node {
  name: "save/Identity"
  op: "Identity"
  input: "save/Read/ReadVariableOp"
  device: "/replica:0/task:0/device:GPU:0"
  attr {
    key: "T"
    value {
      type: DT_FLOAT
    }
  }
  attr {
    key: "_output_shapes"
    value {
      list {
        shape {
          dim {
            size: 32
          }
        }
      }
    }
  }
}
node {
  name: "save/Identity_1"
  op: "Identity"
  input: "save/Identity"
  device: "/replica:0/task:0/device:CPU:0"
  attr {
    key: "T"
    value {
      type: DT_FLOAT
    }
  }
  attr {
    key: "_output_shapes"
    value {
      list {
        shape {
          dim {
            size: 32
          }
        }
      }
    }
  }
}
node {
  name: "save/Read_1/ReadVariableOp"
  op: "ReadVariableOp"
  input: "conv2d/kernel"
  device: "/replica:0/task:0/device:GPU:0"
  attr {
    key: "_output_shapes"
    value {
      list {
        shape {
          dim {
            size: 3
          }
          dim {
            size: 3
          }
          dim {
            size: 3
          }
          dim {
            size: 32
          }
        }
      }
    }
  }
  attr {
    key: "dtype"
    value {
      type: DT_FLOAT
    }
  }
}
node {
  name: "save/Identity_2"
  op: "Identity"
  input: "save/Read_1/ReadVariableOp"
  device: "/replica:0/task:0/device:GPU:0"
  attr {
    key: "T"
    value {
      type: DT_FLOAT
    }
  }
  attr {
    key: "_output_shapes"
    value {
      list {
        shape {
          dim {
            size: 3
          }
          dim {
            size: 3
          }
          dim {
            size: 3
          }
          dim {
            size: 32
          }
        }
      }
    }
  }
}
node {
  name: "save/Identity_3"
  op: "Identity"
  input: "save/Identity_2"
  device: "/replica:0/task:0/device:CPU:0"
  attr {
    key: "T"
    value {
      type: DT_FLOAT
    }
  }
  attr {
    key: "_output_shapes"
    value {
      list {
        shape {
          dim {
            size: 3
          }
          dim {
            size: 3
          }
          dim {
            size: 3
          }
          dim {
            size: 32
          }
        }
      }
    }
  }
}
node {
  name: "save/Read_2/ReadVariableOp"
  op: "ReadVariableOp"
  input: "conv2d_1/bias"
  device: "/replica:0/task:0/device:GPU:0"
  attr {
    key: "_output_shapes"
    value {
      list {
        shape {
          dim {
            size: 64
          }
        }
      }
    }
  }
  attr {
    key: "dtype"
    value {
      type: DT_FLOAT
    }
  }
}
node {
  name: "save/Identity_4"
  op: "Identity"
  input: "save/Read_2/ReadVariableOp"
  device: "/replica:0/task:0/device:GPU:0"
  attr {
    key: "T"
    value {
      type: DT_FLOAT
    }
  }
  attr {
    key: "_output_shapes"
    value {
      list {
        shape {
          dim {
            size: 64
          }
        }
      }
    }
  }
}
node {
  name: "save/Identity_5"
  op: "Identity"
  input: "save/Identity_4"
  device: "/replica:0/task:0/device:CPU:0"
  attr {
    key: "T"
    value {
      type: DT_FLOAT
    }
  }
  attr {
    key: "_output_shapes"
    value {
      list {
        shape {
          dim {
            size: 64
          }
        }
      }
    }
  }
}
node {
  name: "save/Read_3/ReadVariableOp"
  op: "ReadVariableOp"
  input: "conv2d_1/kernel"
  device: "/replica:0/task:0/device:GPU:0"
  attr {
    key: "_output_shapes"
    value {
      list {
        shape {
          dim {
            size: 3
          }
          dim {
            size: 3
          }
          dim {
            size: 32
          }
          dim {
            size: 64
          }
        }
      }
    }
  }
  attr {
    key: "dtype"
    value {
      type: DT_FLOAT
    }
  }
}
node {
  name: "save/Identity_6"
  op: "Identity"
  input: "save/Read_3/ReadVariableOp"
  device: "/replica:0/task:0/device:GPU:0"
  attr {
    key: "T"
    value {
      type: DT_FLOAT
    }
  }
  attr {
    key: "_output_shapes"
    value {
      list {
        shape {
          dim {
            size: 3
          }
          dim {
            size: 3
          }
          dim {
            size: 32
          }
          dim {
            size: 64
          }
        }
      }
    }
  }
}
node {
  name: "save/Identity_7"
  op: "Identity"
  input: "save/Identity_6"
  device: "/replica:0/task:0/device:CPU:0"
  attr {
    key: "T"
    value {
      type: DT_FLOAT
    }
  }
  attr {
    key: "_output_shapes"
    value {
      list {
        shape {
          dim {
            size: 3
          }
          dim {
            size: 3
          }
          dim {
            size: 32
          }
          dim {
            size: 64
          }
        }
      }
    }
  }
}
node {
  name: "save/Read_4/ReadVariableOp"
  op: "ReadVariableOp"
  input: "dense/bias"
  device: "/replica:0/task:0/device:GPU:0"
  attr {
    key: "_output_shapes"
    value {
      list {
        shape {
          dim {
            size: 256
          }
        }
      }
    }
  }
  attr {
    key: "dtype"
    value {
      type: DT_FLOAT
    }
  }
}
node {
  name: "save/Identity_8"
  op: "Identity"
  input: "save/Read_4/ReadVariableOp"
  device: "/replica:0/task:0/device:GPU:0"
  attr {
    key: "T"
    value {
      type: DT_FLOAT
    }
  }
  attr {
    key: "_output_shapes"
    value {
      list {
        shape {
          dim {
            size: 256
          }
        }
      }
    }
  }
}
node {
  name: "save/Identity_9"
  op: "Identity"
  input: "save/Identity_8"
  device: "/replica:0/task:0/device:CPU:0"
  attr {
    key: "T"
    value {
      type: DT_FLOAT
    }
  }
  attr {
    key: "_output_shapes"
    value {
      list {
        shape {
          dim {
            size: 256
          }
        }
      }
    }
  }
}
node {
  name: "save/Read_5/ReadVariableOp"
  op: "ReadVariableOp"
  input: "dense/kernel"
  device: "/replica:0/task:0/device:GPU:0"
  attr {
    key: "_output_shapes"
    value {
      list {
        shape {
          dim {
            size: 14400
          }
          dim {
            size: 256
          }
        }
      }
    }
  }
  attr {
    key: "dtype"
    value {
      type: DT_FLOAT
    }
  }
}
node {
  name: "save/Identity_10"
  op: "Identity"
  input: "save/Read_5/ReadVariableOp"
  device: "/replica:0/task:0/device:GPU:0"
  attr {
    key: "T"
    value {
      type: DT_FLOAT
    }
  }
  attr {
    key: "_output_shapes"
    value {
      list {
        shape {
          dim {
            size: 14400
          }
          dim {
            size: 256
          }
        }
      }
    }
  }
}
node {
  name: "save/Identity_11"
  op: "Identity"
  input: "save/Identity_10"
  device: "/replica:0/task:0/device:CPU:0"
  attr {
    key: "T"
    value {
      type: DT_FLOAT
    }
  }
  attr {
    key: "_output_shapes"
    value {
      list {
        shape {
          dim {
            size: 14400
          }
          dim {
            size: 256
          }
        }
      }
    }
  }
}
node {
  name: "save/Read_6/ReadVariableOp"
  op: "ReadVariableOp"
  input: "dense_1/bias"
  device: "/replica:0/task:0/device:GPU:0"
  attr {
    key: "_output_shapes"
    value {
      list {
        shape {
          dim {
            size: 6
          }
        }
      }
    }
  }
  attr {
    key: "dtype"
    value {
      type: DT_FLOAT
    }
  }
}
node {
  name: "save/Identity_12"
  op: "Identity"
  input: "save/Read_6/ReadVariableOp"
  device: "/replica:0/task:0/device:GPU:0"
  attr {
    key: "T"
    value {
      type: DT_FLOAT
    }
  }
  attr {
    key: "_output_shapes"
    value {
      list {
        shape {
          dim {
            size: 6
          }
        }
      }
    }
  }
}
node {
  name: "save/Identity_13"
  op: "Identity"
  input: "save/Identity_12"
  device: "/replica:0/task:0/device:CPU:0"
  attr {
    key: "T"
    value {
      type: DT_FLOAT
    }
  }
  attr {
    key: "_output_shapes"
    value {
      list {
        shape {
          dim {
            size: 6
          }
        }
      }
    }
  }
}
node {
  name: "save/Read_7/ReadVariableOp"
  op: "ReadVariableOp"
  input: "dense_1/kernel"
  device: "/replica:0/task:0/device:GPU:0"
  attr {
    key: "_output_shapes"
    value {
      list {
        shape {
          dim {
            size: 256
          }
          dim {
            size: 6
          }
        }
      }
    }
  }
  attr {
    key: "dtype"
    value {
      type: DT_FLOAT
    }
  }
}
node {
  name: "save/Identity_14"
  op: "Identity"
  input: "save/Read_7/ReadVariableOp"
  device: "/replica:0/task:0/device:GPU:0"
  attr {
    key: "T"
    value {
      type: DT_FLOAT
    }
  }
  attr {
    key: "_output_shapes"
    value {
      list {
        shape {
          dim {
            size: 256
          }
          dim {
            size: 6
          }
        }
      }
    }
  }
}
node {
  name: "save/Identity_15"
  op: "Identity"
  input: "save/Identity_14"
  device: "/replica:0/task:0/device:CPU:0"
  attr {
    key: "T"
    value {
      type: DT_FLOAT
    }
  }
  attr {
    key: "_output_shapes"
    value {
      list {
        shape {
          dim {
            size: 256
          }
          dim {
            size: 6
          }
        }
      }
    }
  }
}
node {
  name: "save/Read_8/ReadVariableOp"
  op: "ReadVariableOp"
  input: "global_step"
  device: "/replica:0/task:0/device:GPU:0"
  attr {
    key: "_output_shapes"
    value {
      list {
        shape {
        }
      }
    }
  }
  attr {
    key: "dtype"
    value {
      type: DT_INT64
    }
  }
}
node {
  name: "save/Identity_16"
  op: "Identity"
  input: "save/Read_8/ReadVariableOp"
  device: "/replica:0/task:0/device:GPU:0"
  attr {
    key: "T"
    value {
      type: DT_INT64
    }
  }
  attr {
    key: "_output_shapes"
    value {
      list {
        shape {
        }
      }
    }
  }
}
node {
  name: "save/Identity_17"
  op: "Identity"
  input: "save/Identity_16"
  device: "/replica:0/task:0/device:CPU:0"
  attr {
    key: "T"
    value {
      type: DT_INT64
    }
  }
  attr {
    key: "_output_shapes"
    value {
      list {
        shape {
        }
      }
    }
  }
}
node {
  name: "save/StringJoin/inputs_1"
  op: "Const"
  attr {
    key: "_output_shapes"
    value {
      list {
        shape {
        }
      }
    }
  }
  attr {
    key: "dtype"
    value {
      type: DT_STRING
    }
  }
  attr {
    key: "value"
    value {
      tensor {
        dtype: DT_STRING
        tensor_shape {
        }
        string_val: "_temp_27835ec5eff146bcb4fc460bf44bf43c/part"
      }
    }
  }
}
node {
  name: "save/StringJoin"
  op: "StringJoin"
  input: "save/Const"
  input: "save/StringJoin/inputs_1"
  attr {
    key: "N"
    value {
      i: 2
    }
  }
  attr {
    key: "_output_shapes"
    value {
      list {
        shape {
        }
      }
    }
  }
  attr {
    key: "separator"
    value {
      s: ""
    }
  }
}
node {
  name: "save/num_shards"
  op: "Const"
  attr {
    key: "_output_shapes"
    value {
      list {
        shape {
        }
      }
    }
  }
  attr {
    key: "dtype"
    value {
      type: DT_INT32
    }
  }
  attr {
    key: "value"
    value {
      tensor {
        dtype: DT_INT32
        tensor_shape {
        }
        int_val: 1
      }
    }
  }
}
node {
  name: "save/ShardedFilename/shard"
  op: "Const"
  device: "/replica:0/task:0/device:CPU:0"
  attr {
    key: "_output_shapes"
    value {
      list {
        shape {
        }
      }
    }
  }
  attr {
    key: "dtype"
    value {
      type: DT_INT32
    }
  }
  attr {
    key: "value"
    value {
      tensor {
        dtype: DT_INT32
        tensor_shape {
        }
        int_val: 0
      }
    }
  }
}
node {
  name: "save/ShardedFilename"
  op: "ShardedFilename"
  input: "save/StringJoin"
  input: "save/ShardedFilename/shard"
  input: "save/num_shards"
  device: "/replica:0/task:0/device:CPU:0"
  attr {
    key: "_output_shapes"
    value {
      list {
        shape {
        }
      }
    }
  }
}
node {
  name: "save/Read_9/ReadVariableOp"
  op: "ReadVariableOp"
  input: "conv2d/bias"
  device: "/replica:0/task:0/device:GPU:0"
  attr {
    key: "_output_shapes"
    value {
      list {
        shape {
          dim {
            size: 32
          }
        }
      }
    }
  }
  attr {
    key: "dtype"
    value {
      type: DT_FLOAT
    }
  }
}
node {
  name: "save/Identity_18"
  op: "Identity"
  input: "save/Read_9/ReadVariableOp"
  device: "/replica:0/task:0/device:GPU:0"
  attr {
    key: "T"
    value {
      type: DT_FLOAT
    }
  }
  attr {
    key: "_output_shapes"
    value {
      list {
        shape {
          dim {
            size: 32
          }
        }
      }
    }
  }
}
node {
  name: "save/Identity_19"
  op: "Identity"
  input: "save/Identity_18"
  device: "/replica:0/task:0/device:CPU:0"
  attr {
    key: "T"
    value {
      type: DT_FLOAT
    }
  }
  attr {
    key: "_output_shapes"
    value {
      list {
        shape {
          dim {
            size: 32
          }
        }
      }
    }
  }
}
node {
  name: "save/Read_10/ReadVariableOp"
  op: "ReadVariableOp"
  input: "conv2d/kernel"
  device: "/replica:0/task:0/device:GPU:0"
  attr {
    key: "_output_shapes"
    value {
      list {
        shape {
          dim {
            size: 3
          }
          dim {
            size: 3
          }
          dim {
            size: 3
          }
          dim {
            size: 32
          }
        }
      }
    }
  }
  attr {
    key: "dtype"
    value {
      type: DT_FLOAT
    }
  }
}
node {
  name: "save/Identity_20"
  op: "Identity"
  input: "save/Read_10/ReadVariableOp"
  device: "/replica:0/task:0/device:GPU:0"
  attr {
    key: "T"
    value {
      type: DT_FLOAT
    }
  }
  attr {
    key: "_output_shapes"
    value {
      list {
        shape {
          dim {
            size: 3
          }
          dim {
            size: 3
          }
          dim {
            size: 3
          }
          dim {
            size: 32
          }
        }
      }
    }
  }
}
node {
  name: "save/Identity_21"
  op: "Identity"
  input: "save/Identity_20"
  device: "/replica:0/task:0/device:CPU:0"
  attr {
    key: "T"
    value {
      type: DT_FLOAT
    }
  }
  attr {
    key: "_output_shapes"
    value {
      list {
        shape {
          dim {
            size: 3
          }
          dim {
            size: 3
          }
          dim {
            size: 3
          }
          dim {
            size: 32
          }
        }
      }
    }
  }
}
node {
  name: "save/Read_11/ReadVariableOp"
  op: "ReadVariableOp"
  input: "conv2d_1/bias"
  device: "/replica:0/task:0/device:GPU:0"
  attr {
    key: "_output_shapes"
    value {
      list {
        shape {
          dim {
            size: 64
          }
        }
      }
    }
  }
  attr {
    key: "dtype"
    value {
      type: DT_FLOAT
    }
  }
}
node {
  name: "save/Identity_22"
  op: "Identity"
  input: "save/Read_11/ReadVariableOp"
  device: "/replica:0/task:0/device:GPU:0"
  attr {
    key: "T"
    value {
      type: DT_FLOAT
    }
  }
  attr {
    key: "_output_shapes"
    value {
      list {
        shape {
          dim {
            size: 64
          }
        }
      }
    }
  }
}
node {
  name: "save/Identity_23"
  op: "Identity"
  input: "save/Identity_22"
  device: "/replica:0/task:0/device:CPU:0"
  attr {
    key: "T"
    value {
      type: DT_FLOAT
    }
  }
  attr {
    key: "_output_shapes"
    value {
      list {
        shape {
          dim {
            size: 64
          }
        }
      }
    }
  }
}
node {
  name: "save/Read_12/ReadVariableOp"
  op: "ReadVariableOp"
  input: "conv2d_1/kernel"
  device: "/replica:0/task:0/device:GPU:0"
  attr {
    key: "_output_shapes"
    value {
      list {
        shape {
          dim {
            size: 3
          }
          dim {
            size: 3
          }
          dim {
            size: 32
          }
          dim {
            size: 64
          }
        }
      }
    }
  }
  attr {
    key: "dtype"
    value {
      type: DT_FLOAT
    }
  }
}
node {
  name: "save/Identity_24"
  op: "Identity"
  input: "save/Read_12/ReadVariableOp"
  device: "/replica:0/task:0/device:GPU:0"
  attr {
    key: "T"
    value {
      type: DT_FLOAT
    }
  }
  attr {
    key: "_output_shapes"
    value {
      list {
        shape {
          dim {
            size: 3
          }
          dim {
            size: 3
          }
          dim {
            size: 32
          }
          dim {
            size: 64
          }
        }
      }
    }
  }
}
node {
  name: "save/Identity_25"
  op: "Identity"
  input: "save/Identity_24"
  device: "/replica:0/task:0/device:CPU:0"
  attr {
    key: "T"
    value {
      type: DT_FLOAT
    }
  }
  attr {
    key: "_output_shapes"
    value {
      list {
        shape {
          dim {
            size: 3
          }
          dim {
            size: 3
          }
          dim {
            size: 32
          }
          dim {
            size: 64
          }
        }
      }
    }
  }
}
node {
  name: "save/Read_13/ReadVariableOp"
  op: "ReadVariableOp"
  input: "dense/bias"
  device: "/replica:0/task:0/device:GPU:0"
  attr {
    key: "_output_shapes"
    value {
      list {
        shape {
          dim {
            size: 256
          }
        }
      }
    }
  }
  attr {
    key: "dtype"
    value {
      type: DT_FLOAT
    }
  }
}
node {
  name: "save/Identity_26"
  op: "Identity"
  input: "save/Read_13/ReadVariableOp"
  device: "/replica:0/task:0/device:GPU:0"
  attr {
    key: "T"
    value {
      type: DT_FLOAT
    }
  }
  attr {
    key: "_output_shapes"
    value {
      list {
        shape {
          dim {
            size: 256
          }
        }
      }
    }
  }
}
node {
  name: "save/Identity_27"
  op: "Identity"
  input: "save/Identity_26"
  device: "/replica:0/task:0/device:CPU:0"
  attr {
    key: "T"
    value {
      type: DT_FLOAT
    }
  }
  attr {
    key: "_output_shapes"
    value {
      list {
        shape {
          dim {
            size: 256
          }
        }
      }
    }
  }
}
node {
  name: "save/Read_14/ReadVariableOp"
  op: "ReadVariableOp"
  input: "dense/kernel"
  device: "/replica:0/task:0/device:GPU:0"
  attr {
    key: "_output_shapes"
    value {
      list {
        shape {
          dim {
            size: 14400
          }
          dim {
            size: 256
          }
        }
      }
    }
  }
  attr {
    key: "dtype"
    value {
      type: DT_FLOAT
    }
  }
}
node {
  name: "save/Identity_28"
  op: "Identity"
  input: "save/Read_14/ReadVariableOp"
  device: "/replica:0/task:0/device:GPU:0"
  attr {
    key: "T"
    value {
      type: DT_FLOAT
    }
  }
  attr {
    key: "_output_shapes"
    value {
      list {
        shape {
          dim {
            size: 14400
          }
          dim {
            size: 256
          }
        }
      }
    }
  }
}
node {
  name: "save/Identity_29"
  op: "Identity"
  input: "save/Identity_28"
  device: "/replica:0/task:0/device:CPU:0"
  attr {
    key: "T"
    value {
      type: DT_FLOAT
    }
  }
  attr {
    key: "_output_shapes"
    value {
      list {
        shape {
          dim {
            size: 14400
          }
          dim {
            size: 256
          }
        }
      }
    }
  }
}
node {
  name: "save/Read_15/ReadVariableOp"
  op: "ReadVariableOp"
  input: "dense_1/bias"
  device: "/replica:0/task:0/device:GPU:0"
  attr {
    key: "_output_shapes"
    value {
      list {
        shape {
          dim {
            size: 6
          }
        }
      }
    }
  }
  attr {
    key: "dtype"
    value {
      type: DT_FLOAT
    }
  }
}
node {
  name: "save/Identity_30"
  op: "Identity"
  input: "save/Read_15/ReadVariableOp"
  device: "/replica:0/task:0/device:GPU:0"
  attr {
    key: "T"
    value {
      type: DT_FLOAT
    }
  }
  attr {
    key: "_output_shapes"
    value {
      list {
        shape {
          dim {
            size: 6
          }
        }
      }
    }
  }
}
node {
  name: "save/Identity_31"
  op: "Identity"
  input: "save/Identity_30"
  device: "/replica:0/task:0/device:CPU:0"
  attr {
    key: "T"
    value {
      type: DT_FLOAT
    }
  }
  attr {
    key: "_output_shapes"
    value {
      list {
        shape {
          dim {
            size: 6
          }
        }
      }
    }
  }
}
node {
  name: "save/Read_16/ReadVariableOp"
  op: "ReadVariableOp"
  input: "dense_1/kernel"
  device: "/replica:0/task:0/device:GPU:0"
  attr {
    key: "_output_shapes"
    value {
      list {
        shape {
          dim {
            size: 256
          }
          dim {
            size: 6
          }
        }
      }
    }
  }
  attr {
    key: "dtype"
    value {
      type: DT_FLOAT
    }
  }
}
node {
  name: "save/Identity_32"
  op: "Identity"
  input: "save/Read_16/ReadVariableOp"
  device: "/replica:0/task:0/device:GPU:0"
  attr {
    key: "T"
    value {
      type: DT_FLOAT
    }
  }
  attr {
    key: "_output_shapes"
    value {
      list {
        shape {
          dim {
            size: 256
          }
          dim {
            size: 6
          }
        }
      }
    }
  }
}
node {
  name: "save/Identity_33"
  op: "Identity"
  input: "save/Identity_32"
  device: "/replica:0/task:0/device:CPU:0"
  attr {
    key: "T"
    value {
      type: DT_FLOAT
    }
  }
  attr {
    key: "_output_shapes"
    value {
      list {
        shape {
          dim {
            size: 256
          }
          dim {
            size: 6
          }
        }
      }
    }
  }
}
node {
  name: "save/Read_17/ReadVariableOp"
  op: "ReadVariableOp"
  input: "global_step"
  device: "/replica:0/task:0/device:GPU:0"
  attr {
    key: "_output_shapes"
    value {
      list {
        shape {
        }
      }
    }
  }
  attr {
    key: "dtype"
    value {
      type: DT_INT64
    }
  }
}
node {
  name: "save/Identity_34"
  op: "Identity"
  input: "save/Read_17/ReadVariableOp"
  device: "/replica:0/task:0/device:GPU:0"
  attr {
    key: "T"
    value {
      type: DT_INT64
    }
  }
  attr {
    key: "_output_shapes"
    value {
      list {
        shape {
        }
      }
    }
  }
}
node {
  name: "save/Identity_35"
  op: "Identity"
  input: "save/Identity_34"
  device: "/replica:0/task:0/device:CPU:0"
  attr {
    key: "T"
    value {
      type: DT_INT64
    }
  }
  attr {
    key: "_output_shapes"
    value {
      list {
        shape {
        }
      }
    }
  }
}
node {
  name: "save/SaveV2/tensor_names"
  op: "Const"
  device: "/replica:0/task:0/device:CPU:0"
  attr {
    key: "_output_shapes"
    value {
      list {
        shape {
          dim {
            size: 9
          }
        }
      }
    }
  }
  attr {
    key: "dtype"
    value {
      type: DT_STRING
    }
  }
  attr {
    key: "value"
    value {
      tensor {
        dtype: DT_STRING
        tensor_shape {
          dim {
            size: 9
          }
        }
        string_val: "conv2d/bias"
        string_val: "conv2d/kernel"
        string_val: "conv2d_1/bias"
        string_val: "conv2d_1/kernel"
        string_val: "dense/bias"
        string_val: "dense/kernel"
        string_val: "dense_1/bias"
        string_val: "dense_1/kernel"
        string_val: "global_step"
      }
    }
  }
}
node {
  name: "save/SaveV2/shape_and_slices"
  op: "Const"
  device: "/replica:0/task:0/device:CPU:0"
  attr {
    key: "_output_shapes"
    value {
      list {
        shape {
          dim {
            size: 9
          }
        }
      }
    }
  }
  attr {
    key: "dtype"
    value {
      type: DT_STRING
    }
  }
  attr {
    key: "value"
    value {
      tensor {
        dtype: DT_STRING
        tensor_shape {
          dim {
            size: 9
          }
        }
        string_val: ""
        string_val: ""
        string_val: ""
        string_val: ""
        string_val: ""
        string_val: ""
        string_val: ""
        string_val: ""
        string_val: ""
      }
    }
  }
}
node {
  name: "save/SaveV2"
  op: "SaveV2"
  input: "save/ShardedFilename"
  input: "save/SaveV2/tensor_names"
  input: "save/SaveV2/shape_and_slices"
  input: "save/Identity_19"
  input: "save/Identity_21"
  input: "save/Identity_23"
  input: "save/Identity_25"
  input: "save/Identity_27"
  input: "save/Identity_29"
  input: "save/Identity_31"
  input: "save/Identity_33"
  input: "save/Identity_35"
  device: "/replica:0/task:0/device:CPU:0"
  attr {
    key: "dtypes"
    value {
      list {
        type: DT_FLOAT
        type: DT_FLOAT
        type: DT_FLOAT
        type: DT_FLOAT
        type: DT_FLOAT
        type: DT_FLOAT
        type: DT_FLOAT
        type: DT_FLOAT
        type: DT_INT64
      }
    }
  }
}
node {
  name: "save/control_dependency"
  op: "Identity"
  input: "save/ShardedFilename"
  input: "^save/SaveV2"
  device: "/replica:0/task:0/device:CPU:0"
  attr {
    key: "T"
    value {
      type: DT_STRING
    }
  }
  attr {
    key: "_class"
    value {
      list {
        s: "loc:@save/ShardedFilename"
      }
    }
  }
  attr {
    key: "_output_shapes"
    value {
      list {
        shape {
        }
      }
    }
  }
}
node {
  name: "save/MergeV2Checkpoints/checkpoint_prefixes"
  op: "Pack"
  input: "save/ShardedFilename"
  input: "^save/control_dependency"
  device: "/replica:0/task:0/device:CPU:0"
  attr {
    key: "N"
    value {
      i: 1
    }
  }
  attr {
    key: "T"
    value {
      type: DT_STRING
    }
  }
  attr {
    key: "_output_shapes"
    value {
      list {
        shape {
          dim {
            size: 1
          }
        }
      }
    }
  }
  attr {
    key: "axis"
    value {
      i: 0
    }
  }
}
node {
  name: "save/MergeV2Checkpoints"
  op: "MergeV2Checkpoints"
  input: "save/MergeV2Checkpoints/checkpoint_prefixes"
  input: "save/Const"
  device: "/replica:0/task:0/device:CPU:0"
  attr {
    key: "delete_old_dirs"
    value {
      b: true
    }
  }
}
node {
  name: "save/Identity_36"
  op: "Identity"
  input: "save/Const"
  input: "^save/MergeV2Checkpoints"
  input: "^save/control_dependency"
  device: "/replica:0/task:0/device:CPU:0"
  attr {
    key: "T"
    value {
      type: DT_STRING
    }
  }
  attr {
    key: "_output_shapes"
    value {
      list {
        shape {
        }
      }
    }
  }
}
node {
  name: "save/RestoreV2/tensor_names"
  op: "Const"
  device: "/replica:0/task:0/device:CPU:0"
  attr {
    key: "_output_shapes"
    value {
      list {
        shape {
          dim {
            size: 9
          }
        }
      }
    }
  }
  attr {
    key: "dtype"
    value {
      type: DT_STRING
    }
  }
  attr {
    key: "value"
    value {
      tensor {
        dtype: DT_STRING
        tensor_shape {
          dim {
            size: 9
          }
        }
        string_val: "conv2d/bias"
        string_val: "conv2d/kernel"
        string_val: "conv2d_1/bias"
        string_val: "conv2d_1/kernel"
        string_val: "dense/bias"
        string_val: "dense/kernel"
        string_val: "dense_1/bias"
        string_val: "dense_1/kernel"
        string_val: "global_step"
      }
    }
  }
}
node {
  name: "save/RestoreV2/shape_and_slices"
  op: "Const"
  device: "/replica:0/task:0/device:CPU:0"
  attr {
    key: "_output_shapes"
    value {
      list {
        shape {
          dim {
            size: 9
          }
        }
      }
    }
  }
  attr {
    key: "dtype"
    value {
      type: DT_STRING
    }
  }
  attr {
    key: "value"
    value {
      tensor {
        dtype: DT_STRING
        tensor_shape {
          dim {
            size: 9
          }
        }
        string_val: ""
        string_val: ""
        string_val: ""
        string_val: ""
        string_val: ""
        string_val: ""
        string_val: ""
        string_val: ""
        string_val: ""
      }
    }
  }
}
node {
  name: "save/RestoreV2"
  op: "RestoreV2"
  input: "save/Const"
  input: "save/RestoreV2/tensor_names"
  input: "save/RestoreV2/shape_and_slices"
  device: "/replica:0/task:0/device:CPU:0"
  attr {
    key: "_output_shapes"
    value {
      list {
        shape {
          unknown_rank: true
        }
        shape {
          unknown_rank: true
        }
        shape {
          unknown_rank: true
        }
        shape {
          unknown_rank: true
        }
        shape {
          unknown_rank: true
        }
        shape {
          unknown_rank: true
        }
        shape {
          unknown_rank: true
        }
        shape {
          unknown_rank: true
        }
        shape {
          unknown_rank: true
        }
      }
    }
  }
  attr {
    key: "dtypes"
    value {
      list {
        type: DT_FLOAT
        type: DT_FLOAT
        type: DT_FLOAT
        type: DT_FLOAT
        type: DT_FLOAT
        type: DT_FLOAT
        type: DT_FLOAT
        type: DT_FLOAT
        type: DT_INT64
      }
    }
  }
}
node {
  name: "save/AssignVariableOp"
  op: "AssignVariableOp"
  input: "conv2d/bias"
  input: "save/RestoreV2"
  device: "/replica:0/task:0/device:GPU:0"
  attr {
    key: "dtype"
    value {
      type: DT_FLOAT
    }
  }
}
node {
  name: "save/ReadVariableOp"
  op: "ReadVariableOp"
  input: "conv2d/bias"
  input: "^save/AssignVariableOp"
  device: "/replica:0/task:0/device:GPU:0"
  attr {
    key: "_output_shapes"
    value {
      list {
        shape {
          dim {
            size: 32
          }
        }
      }
    }
  }
  attr {
    key: "dtype"
    value {
      type: DT_FLOAT
    }
  }
}
node {
  name: "save/group_deps"
  op: "NoOp"
  input: "^save/AssignVariableOp"
  device: "/replica:0/task:0/device:GPU:0"
}
node {
  name: "save/AssignVariableOp_1"
  op: "AssignVariableOp"
  input: "conv2d/kernel"
  input: "save/RestoreV2:1"
  device: "/replica:0/task:0/device:GPU:0"
  attr {
    key: "dtype"
    value {
      type: DT_FLOAT
    }
  }
}
node {
  name: "save/ReadVariableOp_1"
  op: "ReadVariableOp"
  input: "conv2d/kernel"
  input: "^save/AssignVariableOp_1"
  device: "/replica:0/task:0/device:GPU:0"
  attr {
    key: "_output_shapes"
    value {
      list {
        shape {
          dim {
            size: 3
          }
          dim {
            size: 3
          }
          dim {
            size: 3
          }
          dim {
            size: 32
          }
        }
      }
    }
  }
  attr {
    key: "dtype"
    value {
      type: DT_FLOAT
    }
  }
}
node {
  name: "save/group_deps_1"
  op: "NoOp"
  input: "^save/AssignVariableOp_1"
  device: "/replica:0/task:0/device:GPU:0"
}
node {
  name: "save/AssignVariableOp_2"
  op: "AssignVariableOp"
  input: "conv2d_1/bias"
  input: "save/RestoreV2:2"
  device: "/replica:0/task:0/device:GPU:0"
  attr {
    key: "dtype"
    value {
      type: DT_FLOAT
    }
  }
}
node {
  name: "save/ReadVariableOp_2"
  op: "ReadVariableOp"
  input: "conv2d_1/bias"
  input: "^save/AssignVariableOp_2"
  device: "/replica:0/task:0/device:GPU:0"
  attr {
    key: "_output_shapes"
    value {
      list {
        shape {
          dim {
            size: 64
          }
        }
      }
    }
  }
  attr {
    key: "dtype"
    value {
      type: DT_FLOAT
    }
  }
}
node {
  name: "save/group_deps_2"
  op: "NoOp"
  input: "^save/AssignVariableOp_2"
  device: "/replica:0/task:0/device:GPU:0"
}
node {
  name: "save/AssignVariableOp_3"
  op: "AssignVariableOp"
  input: "conv2d_1/kernel"
  input: "save/RestoreV2:3"
  device: "/replica:0/task:0/device:GPU:0"
  attr {
    key: "dtype"
    value {
      type: DT_FLOAT
    }
  }
}
node {
  name: "save/ReadVariableOp_3"
  op: "ReadVariableOp"
  input: "conv2d_1/kernel"
  input: "^save/AssignVariableOp_3"
  device: "/replica:0/task:0/device:GPU:0"
  attr {
    key: "_output_shapes"
    value {
      list {
        shape {
          dim {
            size: 3
          }
          dim {
            size: 3
          }
          dim {
            size: 32
          }
          dim {
            size: 64
          }
        }
      }
    }
  }
  attr {
    key: "dtype"
    value {
      type: DT_FLOAT
    }
  }
}
node {
  name: "save/group_deps_3"
  op: "NoOp"
  input: "^save/AssignVariableOp_3"
  device: "/replica:0/task:0/device:GPU:0"
}
node {
  name: "save/AssignVariableOp_4"
  op: "AssignVariableOp"
  input: "dense/bias"
  input: "save/RestoreV2:4"
  device: "/replica:0/task:0/device:GPU:0"
  attr {
    key: "dtype"
    value {
      type: DT_FLOAT
    }
  }
}
node {
  name: "save/ReadVariableOp_4"
  op: "ReadVariableOp"
  input: "dense/bias"
  input: "^save/AssignVariableOp_4"
  device: "/replica:0/task:0/device:GPU:0"
  attr {
    key: "_output_shapes"
    value {
      list {
        shape {
          dim {
            size: 256
          }
        }
      }
    }
  }
  attr {
    key: "dtype"
    value {
      type: DT_FLOAT
    }
  }
}
node {
  name: "save/group_deps_4"
  op: "NoOp"
  input: "^save/AssignVariableOp_4"
  device: "/replica:0/task:0/device:GPU:0"
}
node {
  name: "save/AssignVariableOp_5"
  op: "AssignVariableOp"
  input: "dense/kernel"
  input: "save/RestoreV2:5"
  device: "/replica:0/task:0/device:GPU:0"
  attr {
    key: "dtype"
    value {
      type: DT_FLOAT
    }
  }
}
node {
  name: "save/ReadVariableOp_5"
  op: "ReadVariableOp"
  input: "dense/kernel"
  input: "^save/AssignVariableOp_5"
  device: "/replica:0/task:0/device:GPU:0"
  attr {
    key: "_output_shapes"
    value {
      list {
        shape {
          dim {
            size: 14400
          }
          dim {
            size: 256
          }
        }
      }
    }
  }
  attr {
    key: "dtype"
    value {
      type: DT_FLOAT
    }
  }
}
node {
  name: "save/group_deps_5"
  op: "NoOp"
  input: "^save/AssignVariableOp_5"
  device: "/replica:0/task:0/device:GPU:0"
}
node {
  name: "save/AssignVariableOp_6"
  op: "AssignVariableOp"
  input: "dense_1/bias"
  input: "save/RestoreV2:6"
  device: "/replica:0/task:0/device:GPU:0"
  attr {
    key: "dtype"
    value {
      type: DT_FLOAT
    }
  }
}
node {
  name: "save/ReadVariableOp_6"
  op: "ReadVariableOp"
  input: "dense_1/bias"
  input: "^save/AssignVariableOp_6"
  device: "/replica:0/task:0/device:GPU:0"
  attr {
    key: "_output_shapes"
    value {
      list {
        shape {
          dim {
            size: 6
          }
        }
      }
    }
  }
  attr {
    key: "dtype"
    value {
      type: DT_FLOAT
    }
  }
}
node {
  name: "save/group_deps_6"
  op: "NoOp"
  input: "^save/AssignVariableOp_6"
  device: "/replica:0/task:0/device:GPU:0"
}
node {
  name: "save/AssignVariableOp_7"
  op: "AssignVariableOp"
  input: "dense_1/kernel"
  input: "save/RestoreV2:7"
  device: "/replica:0/task:0/device:GPU:0"
  attr {
    key: "dtype"
    value {
      type: DT_FLOAT
    }
  }
}
node {
  name: "save/ReadVariableOp_7"
  op: "ReadVariableOp"
  input: "dense_1/kernel"
  input: "^save/AssignVariableOp_7"
  device: "/replica:0/task:0/device:GPU:0"
  attr {
    key: "_output_shapes"
    value {
      list {
        shape {
          dim {
            size: 256
          }
          dim {
            size: 6
          }
        }
      }
    }
  }
  attr {
    key: "dtype"
    value {
      type: DT_FLOAT
    }
  }
}
node {
  name: "save/group_deps_7"
  op: "NoOp"
  input: "^save/AssignVariableOp_7"
  device: "/replica:0/task:0/device:GPU:0"
}
node {
  name: "save/AssignVariableOp_8"
  op: "AssignVariableOp"
  input: "global_step"
  input: "save/RestoreV2:8"
  device: "/replica:0/task:0/device:GPU:0"
  attr {
    key: "dtype"
    value {
      type: DT_INT64
    }
  }
}
node {
  name: "save/ReadVariableOp_8"
  op: "ReadVariableOp"
  input: "global_step"
  input: "^save/AssignVariableOp_8"
  device: "/replica:0/task:0/device:GPU:0"
  attr {
    key: "_output_shapes"
    value {
      list {
        shape {
        }
      }
    }
  }
  attr {
    key: "dtype"
    value {
      type: DT_INT64
    }
  }
}
node {
  name: "save/group_deps_8"
  op: "NoOp"
  input: "^save/AssignVariableOp_8"
  device: "/replica:0/task:0/device:GPU:0"
}
node {
  name: "save/restore_shard"
  op: "NoOp"
  input: "^save/group_deps"
  input: "^save/group_deps_1"
  input: "^save/group_deps_2"
  input: "^save/group_deps_3"
  input: "^save/group_deps_4"
  input: "^save/group_deps_5"
  input: "^save/group_deps_6"
  input: "^save/group_deps_7"
  input: "^save/group_deps_8"
  device: "/replica:0/task:0/device:GPU:0"
}
node {
  name: "save/restore_all"
  op: "NoOp"
  input: "^save/restore_shard"
  device: "/replica:0/task:0/device:GPU:0"
}
versions {
  producer: 134
}
